rl2023/exercise4/pendulum_latest.pt (torch, 169697 bytes, 40 tensors)

weight f4 [64, 3]
00000000: 261f 88bf 79df 91be 22d4 82be 519e 7bbf
00000010: 2eae 8f3f 3216 b2be 297d 9ebd 7f04 9f3f
00000020: 2074 673e 22b4 9ebf 3b08 b93d 832b a1bd
00000030: 73c8 c73e b3be 38bf 65a4 93be a1b9 42be
00000040: f8d7 b5bf b7f1 82be 90cc 193f 35d4 363f
00000050: 5a28 3a3e 3086 903e c19a 363f ece0 93be
00000060: 4293 52bf bb8f 363e f98a 953e 0de4 1e3f
00000070: c68b 1f3e 60a2 843d 8633 3cbf a8a0 933e
00000080: 79c0 cb3e b3e1 fcbf 7489 ffbe 89a6 85be
00000090: e259 7ebe a029 64bf 1958 18be 7153 7f3e
000000a0: e6a0 aebe a236 0e3d 076b 0abf c94b 193f
000000b0: a962 cdbe 71db e5be 4c26 88bf 6a89 ecba
000000c0: 5b41 333f e49c 51be 0564 3fbe d701 e9bd
000000d0: 7098 88bf b8b3 843d 821e aabf 92ff cb3c
000000e0: f15d 0fbd 1e79 b43e 6151 513f 6db8 80be
000000f0: 1ce5 1abf e146 813e 59b8 3e3f f717 41bf
00000100: 29e1 883f efe7 ebbc f83f 44bf 1c43 c43e
00000110: aa00 073f 4f8f 78bf 52c8 93bf 0ab5 bb3e
00000120: 8d3f 34be 8afe 9dbf 5eff 9ebe ac19 78be
00000130: 6c26 8b3f a38c 5a3e 1379 143f 0112 4fbe
00000140: ae06 f1be 992f 763d 02bd 783d fe2f 91be
00000150: 826f 2f3f 116d cf3e e6da 80be 128d 9a3d
00000160: 9f97 89be d9ef 103d cf04 4f3e 28b1 3abf
00000170: fdd9 6cbe f20f 2b3f 9183 33be 858d 64bc
00000180: a532 e23e 4720 7cbf c178 7dbe beee 9b3d
00000190: 7a64 fdbd 7b7c a8be bd27 82be 606d 533f
000001a0: f176 013f 1318 92bf 357f 1abf cbae 1cbe
000001b0: 3020 76bf d072 ae3e 81dd 86bd b126 66bf
000001c0: fde3 89bf 4f94 1d3f 0ea0 bb3b 5eda a2bf
000001d0: e184 1abe c221 683e e971 993f ec5a 0fbe
000001e0: 1d87 a7be e6b7 273f df04 28be 8dfa 3abf
000001f0: ef63 713e 6a8b 293e c408 1d3e f49e 6b3e
00000200: 2012 d23c f4e2 2c3e 523f 62bc 1ed2 60be
00000210: b9f2 9d3f cc41 2dbf 6e8e 2a3e 878e 9a3f
00000220: e0af 233f e9a6 f03e 533e c5be 71aa b33f
00000230: e2f6 4c3e d7af e1be 42bd bc3d cb31 b4be
00000240: f9d2 86be 9ed6 a0bf 67d8 63be f765 b9be
00000250: 2eaa 923f 2bf8 093f ee0b bd3e ecdf 9c3f
00000260: bc02 843e 8a41 5bbf 9a42 c83e c9cc 06be
00000270: e27a 3f3f 246a 4abf e0ce b83e 7f6f 713e
00000280: 6f8e f73e d23c dbbe 3587 f7be 28f5 403e
00000290: 1d6c fb3e 3c34 31be 4ee5 aabf a95a 76be
000002a0: e879 a2bf 07aa 853e 86ac 0f3e ac58 d9be
000002b0: 1223 adbe ff7f 0ebe 2f2d 2ebe 136d 953f
000002c0: 3534 8e3e ab9c 9d3e 67c5 b93e a1e2 2dbe
000002d0: d355 9ebf b6f1 033f e796 e93e cef1 b0bf
000002e0: 7a40 a33c 970e 1cbe 554a 2cbe 819c 70bf
000002f0: 8195 8abe 92ca 0bbf 9ca8 373d b8e7 ea3e
-1.0634506 -0.2849081 -0.2555247 -0.98288447 1.122503 -0.3478256 -0.07738716 1.2423247
0.22602892 -1.2398722 0.09034773 -0.07869627 0.39020118 -0.72165984 -0.2883636 -0.19016124
-1.4206533 -0.2557504 0.6007776 0.7141755 0.18179455 0.28227377 0.71329886 -0.2888254
-0.8225595 0.17828266 0.2920759 0.6206673 0.15580663 0.06476283 -0.7351612 0.28833508
0.39795282 -1.9756378 -0.49909556 -0.2610362 -0.24838975 -0.89126015 -0.14877357 0.24934174
-0.3410713 0.03472007 -0.5406956 0.59881264 -0.40114334 -0.44893983 -1.0636687 -0.0018046324
0.700216 -0.20470005 -0.18690498 -0.11377304 -1.067152 0.06479591 -1.329056 0.024902139
-0.0350017 0.35248655 0.817648 -0.25140706 -0.60505843 0.2524939 0.7450004 -0.7542719
1.0693713 -0.028797118 -0.7666011 0.3833245 0.5273539 -0.9709367 -1.1545508 0.3666156
-0.17602368 -1.2343304 -0.31054205 -0.24228543 1.08711 0.21342711 0.57997245 -0.20221712
-0.4707541 0.060103986 0.060727127 -0.28356928 0.6852952 0.405129 -0.25167006 0.07546438
-0.2687349 0.035384987 0.20216678 -0.7292657 -0.23130031 0.66821206 -0.17530657 -0.0139497565
0.44179264 -0.9848675 -0.24753095 0.07613896 -0.1237268 -0.3290747 -0.25420943 0.8258877
0.50572115 -1.1413597 -0.6035035 -0.15301053 -0.96142864 0.3407197 -0.06585217 -0.8990279
-1.0772702 0.61554426 0.005725867 -1.272289 -0.15089752 0.22669128 1.1987888 -0.13999528
-0.3272027 0.6551498 -0.16408108 -0.7303856 0.23573278 0.16557088 0.15335375 0.23009855
0.025643408 0.16883451 -0.013809042 -0.21955153 1.2339698 -0.67678523 0.16655895 1.2074746
0.6394024 0.47002342 -0.38524112 1.403639 0.20016053 -0.44079468 0.092157856 -0.3519424
-0.26332834 -1.2565496 -0.2225052 -0.36210606 1.1458185 0.538943 0.36923164 1.2255836
0.25783336 -0.8564688 0.39113313 -0.13164057 0.7479688 -0.7906821 0.36095333 0.23577689
0.48350856 -0.4281984 -0.48345342 0.1884352 0.4910592 -0.17305082 -1.3351228 -0.24058022
-1.2693453 0.26106283 0.14030656 -0.42450464 -0.3381582 -0.13916014 -0.17009424 1.1673912
0.27774206 0.3078359 0.3628342 -0.16980983 -1.2369941 0.51540697 0.45622942 -1.3823793
0.019928206 -0.1523994 -0.1682523 -0.93988806 -0.27067187 -0.5460597 0.044838533 0.45879912

bias f4 [64]
00000000: 0bf2 27bf 1539 19be db01 873e 78ca 893e
00000010: 8ab5 c0be 7d99 72be ab8d 683e 174a 49be
00000020: 231c 7ebe cda0 553e 3d2f 11bf 18e3 48be
00000030: 53f4 933e 85f0 043e 9aaf e6be 5f8e d33d
00000040: e486 193f 1afb bf3e 81bc 00bf 12f0 c63c
00000050: 196d c6be d82c a8bd 4afc 07bf 8cf0 84bd
00000060: bed5 53be 49b7 eb3e 84a4 5dbf 2335 43bf
00000070: 0bfb 5dbf e800 4f3e 4c82 4b3e 8f84 153f
00000080: 3683 c73d dba8 6ebf 987c cfbb a08a b43e
00000090: 9f5f b1bc 9a64 aabe 29ed e03e fcf0 9e3e
000000a0: 41d2 48be 01b6 f9bc 3e28 02bf 0885 30bf
000000b0: bc13 32bf a4d4 67bf 11c2 bf3e 5a44 87be
000000c0: ef9b cd3d 22cf 91bc 1deb 85bc f8f3 4bbf
000000d0: 4bce c7be 10cc 193f fe78 adbe 4d4f 5abe
000000e0: 967c 603e ea7d d4be 17c3 ec3d f8b0 7bbf
000000f0: b241 d7be 3e4b 3fbe 7e7f c8bd 0f60 d3be
-0.65603703 -0.14963181 0.26368603 0.26912284 -0.37638503 -0.23691364 0.22710292 -0.1965717
-0.24815421 0.20862122 -0.56712705 -0.1961788 0.28897342 0.12982376 -0.45055848 0.103298895
0.5997145 0.37496263 -0.50287634 0.024284396 -0.3875511 -0.08211678 -0.5311934 -0.06491193
-0.20687005 0.46038273 -0.86579156 -0.76252955 -0.86711186 0.2021519 0.19873923 0.58405393
0.097418234 -0.93226403 -0.0063319914 0.35262012 -0.021652041 -0.33279878 0.4393094 0.3104323
-0.19611456 -0.030482294 -0.50842655 -0.6895299 -0.6956136 -0.9055884 0.37452748 -0.26419336
0.100395076 -0.017798964 -0.016347462 -0.7966914 -0.39024577 0.60077 -0.33881372 -0.21319313
0.21922526 -0.41502315 0.11560648 -0.9831691 -0.4204231 -0.18681046 -0.09789942 -0.41284224

weight f4 [64, 64]
00000000: 4f37 36bd 4062 48be 3c91 8fbe f131 b83d
00000010: 4e2e 583e 40b9 503d 39c1 78bf 2541 3c3e
00000020: 3686 16be ea54 92bd d097 6f3d a7ec 10be
00000030: 2682 81bd 506f 0fbf 40d2 10bd 29cc ecbd
00000040: 7abe d43d 5c47 a6be a643 44bc c535 d93d
00000050: 490d a73d 4d92 84be 7861 fd3c 70cf 983e
00000060: 371f 133e cc57 41bf e593 913e a25b 093e
00000070: e56d 0f3d 8458 1abf 830c 073e df84 51bc
00000080: 0820 3e3d f821 a83e 3f53 f73d ccef f1bc
00000090: 1fff babd 6240 03bb 8e46 19be 5063 9ebd
000000a0: e876 4ebd b65a 11be daeb 8abd 6abb 7f3e
000000b0: 763a a7be 1e13 a2bd 0603 7fbe 96fd 263e
000000c0: ebf4 393d bcf3 e2bd cf33 2bbe 35fe 3dbd
000000d0: 0826 a1bd 49ee 6cbd 3665 303d 5749 b1ba
000000e0: 149e 47bf 9b73 15bd d4a8 a13e 3660 9d3e
000000f0: ca28 d63d 8281 993d acf1 4d3e c106 91bc
00000100: 7050 09bd 6828 98bd 3ccc 17bd 3ab3 f9bc
00000110: 7220 383b 31be 7d3d d107 4b3e 627e bf3d
00000120: f848 63be 6f6f b23e 0118 04bd 0463 503d
00000130: 8f6b 5ebd cbd5 2cbd 9657 d93d 4dd1 22be
00000140: be00 62bd 4e54 82bd cfa0 7ebe d7a0 a2bc
00000150: 536c 313d 1bc3 78be 5b2c 173b d469 fbbe
00000160: 12af 32bd 813a 263c f8dd 653e 5105 853e
00000170: 97f1 e43d 599f a83d 5825 d03d 8c8b 673e
00000180: a4a1 203e d049 793d 8456 243e 6a49 15bd
00000190: 6659 9ebd 730b f7be 85f8 d8bc 3ea4 313e
000001a0: 7d6f 1a3e 3ef4 53be e415 cf3d b037 743e
000001b0: 726d fe3d 1955 df3e b55f bebb ec90 b63d
000001c0: bf92 8d3e 6b82 3ebd 940e 4b3d 7e68 6abd
000001d0: 8535 2c3e c0f7 ab3d 1ed1 563e 604c d6bb
000001e0: 1043 babf e9c2 0ebc 5e67 a93e 8dff 353e
000001f0: 8a85 73be f590 52bc 06f6 0a3e b632 a3bd
00000200: ea6d e4be 28fa 0b3e 2a3c 79be 9515 243e
00000210: 7328 b7bd ad5e 46be c188 e3be 7d40 05be
00000220: df70 133d be2e b2be 7fa7 17bf ee09 bb3d
00000230: 80d5 083e d11e 15be a67e 45be 4c31 aebc
00000240: 2c70 e3be 7fdf e2bd 606a 1d3e ba7c efbd
00000250: 7fdb 29bf 907e 07bd 735c 0cbf 5b5f f8bd
00000260: 4a5a f9be 293e 29bd 562c 9c3c 2b34 323b
00000270: fe55 123d aed6 40be 5b11 9fbd f2bb 9fbe
00000280: cee9 88be 20a7 f73d 8aae 3bbf 18a0 5e3e
00000290: 3992 74be ec84 03be 0a0c 66bd 91a5 c1bd
000002a0: 1f47 f23d 9407 7e3d a0ab 943d 00f0 9bbd
000002b0: 95c6 14be 3c93 7dbe ebd8 a43c de19 75be
000002c0: e2e9 313c 9645 ecbe b40f 34be c92e c6bd
000002d0: 4d4a c5bd a110 9ebe e4a5 e6be 2d3d c5bd
000002e0: 3f7d 103e e112 07bf 2793 fcbe 6098 c63c
000002f0: 5010 92be f642 d43c 9f61 2f3e 60d7 efbe
00000300: c1b3 123e a06d 023e a53b 4abf 9840 a83d
00000310: ae50 21bf bdf7 6cbd 775d 8abe 3cbc 303d
00000320: 5cb2 8b3d aa12 e6be cbb6 583e 5285 8abd
00000330: a16c b73e 12c6 22bd 1224 0abe 80ae c53e
00000340: 4e10 59bf 7b04 913e 464c 92be 07c0 78bd
00000350: f26d 013d 209d d5bc dad4 333e acfc 7e3e
00000360: 5912 6fbe eaa8 41be f55a e8bd a309 cd3d
00000370: 01cd 8dbd 51a6 a33d f6ea 2bbf 2ba3 1fbe
00000380: 5dbc 2ebf 51e7 39bc 2343 13bd 4daa d33e
00000390: 9bb2 96bf 3582 9e3e 36ae 4b3e 8226 2b3d
000003a0: c63b 273c fdf8 4a3e b4a7 18bd aad3 ef3d
000003b0: d3c0 29bf c67a a1be 945d d1be 68f1 3fbe
000003c0: 51ff 643f 1073 f3bd 8f32 6abe cc07 d03d
000003d0: 6562 0d3e 452e 44bf 27d1 953d 8cdc f6be
000003e0: 1ff6 c1be 1157 6abb e47b 4ebf 6c12 6abd
000003f0: 06a4 7a3d 8483 bf3e 7c25 15be fafd ca3d
-0.04448634 -0.1956873 -0.28040493 0.089939006 0.21111414 0.05095792 -0.97169834 0.18384226
-0.14699635 -0.07145102 0.05849439 -0.14152776 -0.06323652 -0.56029224 -0.03535676 -0.11562378
0.10387893 -0.32476318 -0.011979019 0.10605959 0.08156831 -0.2589287 0.030930266 0.29845762
0.14367376 -0.7552459 0.28433147 0.13413861 0.035016913 -0.60291314 0.13188367 -0.012788027
0.046417266 0.32838416 0.12076425 -0.02953329 -0.09130692 -0.0020027389 -0.1496832 -0.07733786
-0.050406367 -0.1419476 -0.06783266 0.24973837 -0.3266179 -0.079138026 -0.24903497 0.16307673
0.045399588 -0.11081645 -0.16718982 -0.04638501 -0.07868582 -0.057844434 0.043065272 -0.0013525885
-0.77975583 -0.036487203 0.31574118 0.30737466 0.10456999 0.07495405 0.20111722 -0.017703416
-0.033523977 -0.07429582 -0.037060007 -0.03048097 0.002809551 0.06194896 0.198272 0.093502775
-0.22195804 0.34850642 -0.032249454 0.05087568 -0.054301795 -0.042196076 0.10612409 -0.15900154
-0.05517649 -0.06363736 -0.24866031 -0.019852085 0.043316197 -0.24293177 0.002306721 -0.49104178
-0.04362399 0.010145784 0.22447956 0.2598062 0.11178892 0.08233518 0.10163373 0.22611827
0.15686661 0.06086141 0.16048628 -0.036446966 -0.07731895 -0.48250923 -0.02648569 0.1734781
0.15081592 -0.2069864 0.10111597 0.23849368 0.12423219 0.43619612 -0.005809749 0.089143604
0.2765102 -0.046511095 0.04957445 -0.057228558 0.16817291 0.08396864 0.2097821 -0.0065398663
-1.4551716 -0.008713462 0.33086675 0.17773266 -0.2378141 -0.012851943 0.13570413 -0.07968657
-0.44615108 0.13669646 -0.24339357 0.16023858 -0.08943262 -0.19372053 -0.44440272 -0.13012882
0.035996314 -0.34801286 -0.59239954 0.09132753 0.13362694 -0.14562537 -0.19286594 -0.021263741
-0.44421518 -0.11077785 0.1537261 -0.116937116 -0.6635055 -0.033079684 -0.54828566 -0.121275626
-0.48701698 -0.041319046 0.01906411 0.002719174 0.03572654 -0.18831894 -0.07766982 -0.31198078
-0.2674088 0.120924234 -0.733132 0.21740758 -0.23883905 -0.12843674 -0.056163825 -0.094554074
0.118299715 0.062018946 0.07259297 -0.07614136 -0.14528878 -0.24763197 0.020122966 -0.23935649
0.010858985 -0.4614684 -0.17584115 -0.09676892 -0.096333124 -0.30872062 -0.4504844 -0.09630809
0.14110278 -0.5276318 -0.49331018 0.02424258 -0.2852807 0.025910836 0.17127083 -0.46844006
0.14326383 0.12737131 -0.7899726 0.08215445 -0.6301373 -0.05785345 -0.27024433 0.043148264
0.06821129 -0.44936115 0.2116348 -0.0676371 0.35825065 -0.039739676 -0.13490322 0.38609695
-0.84790504 0.2832373 -0.28573817 -0.060730007 0.031598993 -0.0260759 0.17561665 0.24901074
-0.23346843 -0.18912092 -0.11345474 0.10011604 -0.06923867 0.07990707 -0.67155397 -0.15589587
-0.6825617 -0.011346654 -0.0359527 0.41340867 -1.1773256 0.30958715 0.19890675 0.04178477
0.010207122 0.19821544 -0.03726931 0.117102936 -0.6630985 -0.3153898 -0.40891707 -0.18744433
0.8945208 -0.11887181 -0.22870849 0.10157737 0.13807066 -0.766331 0.07315283 -0.4821514
-0.37883088 -0.0035757462 -0.8065779 -0.057146475 0.06119158 0.37405026 -0.1456508 0.099117234

bias f4 [64]
00000000: 997d a1be 1cae 62bd 8e92 e13a 4904 8dbe
00000010: 6e7a 973d 1dc3 623e 6f9d 513d 7a1c 90bd
00000020: 4856 11bd 041f b1bc b6ad 0fbe e34b d4bd
00000030: 2648 553c f52e 2a3d 4f43 bc3d 0c98 49bc
00000040: e8ff 30be f237 64be 8bd2 a5bd 23b6 c2bc
00000050: f898 153e ff76 f03c 1dd3 743e bf46 e63d
00000060: bbff fd3d 5f3a f03d c9bc 4c3d add3 c63d
00000070: 4909 803e 4e3f 893d 6f64 863d 9292 933e
00000080: 29f3 51bd de81 223d f633 24bd c5e8 38bd
00000090: 379e d0be 75a5 933d f923 2d3e caed e1bd
000000a0: fbb1 84bc cc81 9d3d aeee 0d3a 77f9 35bd
000000b0: cce7 fa3b d10b 99be 6804 913d ee17 c23d
000000c0: 5bba aabc 6dc2 1c3e 1893 20bd 1953 513e
000000d0: 0e68 c23d beb4 5a3e c5e3 3a3e 208f 133d
000000e0: 2548 103e acca 08be 6210 46bd 954a c9bc
000000f0: ab57 713e 2e81 1e3c 1a61 0fbe 5d11 b1bd
-0.31541136 -0.055341825 0.0017209814 -0.27542332 0.073963985 0.22144742 0.05117553 -0.070366815
-0.035482675 -0.021621235 -0.14031109 -0.10366037 0.01301769 0.041548688 0.091925256 -0.012304317
-0.1728512 -0.22286966 -0.080967985 -0.02376849 0.14609134 0.029353617 0.23908658 0.112439625
0.12402292 0.117298834 0.049984727 0.09708343 0.25007084 0.067015275 0.06562125 0.28822762
-0.051257286 0.039674632 -0.040088616 -0.04514386 -0.40745708 0.07209293 0.16908254 -0.11031683
-0.016198149 0.076907724 0.0005414289 -0.04442736 0.007657027 -0.29891828 0.070809186 0.094772205
-0.020840814 0.15308543 -0.03920278 0.20441855 0.09492503 0.2135801 0.1825095 0.036025167
0.14090021 -0.13358563 -0.048355468 -0.024571696 0.23568599 0.0096743535 -0.14001885 -0.0864589

weight f4 [1, 64]
00000000: 2b8c 9a3e aec2 7c3e 8b0f 5cbf 96f3 1a3f
00000010: 02f1 783f 980d ac3d 6b3a 8f3f eec9 2ebe
00000020: 1102 143d 5bfc 8abb e72b de3d 3fd4 b33f
00000030: da8b 0940 c79b 74bc fce3 803f 69cd 3ec0
00000040: c31a ac3f 317b 1ec0 f74a 83be d90d d2bd
00000050: 5f47 ecbe 4cba d6be 9507 1b40 07e6 d23e
00000060: e3bf 36bf 7e06 a1bd e89e d5be 0d05 fb3d
00000070: 3908 a1be 7cc6 ad3f 4f12 a83e 453f 943e
00000080: 1053 3a3d 5637 2940 8543 5f3e c63e f3bd
00000090: 8ab2 2ebf d7f6 283f 119a 213e 4138 c73c
000000a0: 2988 303e 289d c9be 2cf2 84be e84e fb3d
000000b0: 0505 44bf cbfb ef3e fc58 443d ae9d 83bd
000000c0: 4b89 bb3d e773 683e 5ce3 3fbc c091 b2be
000000d0: 0d80 d1be a76f 17bf 1823 313f f0bf 0a40
000000e0: 5981 db3d b3a4 ac3e 4808 843e da09 2b3f
000000f0: d83a 02bf 4cd4 b8bd 07c5 eebc 7c99 593e
0.30185065 0.2468364 -0.85961217 0.6052793 0.9724275 0.0840103 1.1189703 -0.17069218
0.036134783 -0.004241509 0.108482175 1.4049147 2.1491609 -0.014929718 1.0069575 -2.9812872
1.3445667 -2.476269 -0.2564313 -0.102565475 -0.46148202 -0.41939008 2.4223378 0.41191122
-0.71386546 -0.078625664 -0.41722798 0.12256823 -0.31451586 1.3576198 0.32826468 0.2895452
0.04548937 2.6440024 0.218031 -0.118772075 -0.6824118 0.6600165 0.15781428 0.024318816
0.17239441 -0.39377713 -0.25966012 0.122709095 -0.7657016 0.4687179 0.047936425 -0.064265594
0.09157046 0.22700463 -0.011711922 -0.34876823 -0.40918007 -0.5915474 0.69194174 2.167965
0.107180305 0.33719406 0.25787568 0.6681191 -0.5087104 -0.090248674 -0.029146684 0.21249956

weight f4 [64, 3]
00000000: 1780 89bf d8b3 91be f603 82be f6b9 7ebf
00000010: dbc5 8f3f 7c9e b2be f664 94bd 9e90 9f3f
00000020: 5a8d 663e a460 9dbf 0391 c03d 997e a4bd
00000030: 3f28 c23e 2e15 3bbf fe1b 95be 912d 4bbe
00000040: 64fd b5bf 9367 81be 95fb 183f bc6f 383f
00000050: 93f5 343e 9ab3 923e 65f4 363f aa2d 93be
00000060: 684d 51bf f9c3 263e 4356 993e e4be 1e3f
00000070: aac0 253e a274 603d 6fcc 37bf 37c1 853e
00000080: cd3c d03e 6eb4 fdbf f1dc ffbe fb6a 85be
00000090: 88c5 7abe a4e7 65bf 5b00 10be 03cb 803e
000000a0: 1b87 b0be 62c7 173d 8772 0ebf 2743 1e3f
000000b0: 39e6 cfbe 7eae e0be b9e7 88bf 6d3f ee3b
000000c0: 2c8d 313f c542 55be 397e 41be 72cd d6bd
000000d0: 73ec 89bf 9673 903d 95b5 abbf 2276 6c3c
000000e0: e7aa 01bd a128 b23e fb3c 523f 0320 81be
000000f0: 724e 16bf ddb1 713e 9786 403f d7dd 40bf
00000100: 9ed9 893f 0e2f dfbc e2b6 40bf 3caa bc3e
00000110: 28a8 073f 98e4 74bf cb58 94bf eb78 bb3e
00000120: 2eeb 36be fa50 9ebf 5099 9ebe 3a02 77be
00000130: a332 8b3f bae8 593e 5b5a 163f 56d5 4dbe
00000140: 51b4 f1be f95a 773d ed45 853d 74c2 91be
00000150: f20a 2f3f a060 ce3e 6d2e 81be 5afc a73d
00000160: b4d6 88be 0f79 143d 3996 483e d1ca 3abf
00000170: 1a44 6fbe a2a2 2a3f 821e 31be f4da 44bc
00000180: a480 e13e 0937 7cbf f1e7 7ebe 5718 8f3d
00000190: 3dfa fabd f31c a8be 34bb 7cbe fba6 533f
000001a0: db71 003f cb1e 91bf a678 1cbf 38a0 1bbe
000001b0: 2c15 75bf 961a af3e b162 87bd f750 63bf
000001c0: 8bfe 89bf 48ac 1d3f df42 f23b 4257 a3bf
000001d0: e264 17be 54ff 643e 081c 9a3f 2ea9 14be
000001e0: 8cd8 adbe f051 2b3f ac73 29be 9b8c 36bf
000001f0: 4099 693e fd1c 363e c408 1d3e 019f 6b3e
00000200: 2012 d23c 39ed 2a3e 4206 30bc 89d1 60be
00000210: 0197 9e3f c89a 28bf f052 203e 4867 9a3f
00000220: 0748 243f a9b5 ed3e f412 c3be 7f9c b43f
00000230: 5061 4c3e bdb1 e9be 07d1 c13d 3966 b3be
00000240: c764 8abe f775 a1bf 3ffc 5abe 2774 b6be
00000250: c626 933f 8993 093f 671c bd3e 366f 9d3f
00000260: 4963 813e a619 5dbf 50b3 c93e 03bb 07be
00000270: 658d 3f3f def6 4abf 50a8 b73e 1ae6 623e
00000280: 7477 f83e 1652 dcbe 22c6 edbe c2cd 3a3e
00000290: 78dd fc3e d6c0 39be 99cf aabf ad00 72be
000002a0: fcba a2bf 9eb7 853e 3f23 0e3e c3af d9be
000002b0: e04a adbe dcb9 0dbe a0bc 1fbe 8d39 963f
000002c0: 475a 8b3e defe 983e 6f5c ba3e 2e05 2fbe
000002d0: 7e8a 9ebf 825c 003f 5f59 ee3e 0cba b1bf
000002e0: 8273 a23c 4a63 18be c419 32be d17f 6fbf
000002f0: 3cec 8bbe 6069 08bf 666a 273d 5f6b eb3e
-1.0742215 -0.28457522 -0.25393647 -0.99502504 1.1232256 -0.3488654 -0.07245819 1.2466009
0.22514859 -1.2295117 0.09402659 -0.08031959 0.3792133 -0.7307919 -0.2912292 -0.19841601
-1.4217954 -0.25274333 0.59758884 0.72045493 0.17671804 0.2865265 0.71466666 -0.28745776
-0.8175874 0.16285695 0.29948625 0.62010026 0.16186777 0.05479873 -0.71796316 0.26123974
0.40671387 -1.9820688 -0.49973252 -0.26058182 -0.24489415 -0.8980658 -0.14062636 0.25154886
-0.34478077 0.03705538 -0.55643505 0.61821216 -0.40605333 -0.43883127 -1.0695716 0.0072707445
0.69356036 -0.20826252 -0.18895806 -0.10488404 -1.0775284 0.07053296 -1.341479 0.014432462
-0.031657126 0.34796622 0.821243 -0.25219736 -0.5871345 0.23603006 0.7520537 -0.753385
1.0769536 -0.027244117 -0.7527906 0.3684863 0.5299096 -0.95661306 -1.1589597 0.3661569
-0.17863151 -1.2368462 -0.30976343 -0.24121943 1.0874828 0.21280184 0.5873162 -0.20100912
-0.47207883 0.060389493 0.06507478 -0.28468668 0.68376076 0.40308094 -0.25230733 0.08202429
-0.26726305 0.036248263 0.19588555 -0.72965723 -0.23365822 0.6665441 -0.17296794 -0.012015093
0.44043458 -0.98521477 -0.24893166 0.06987064 -0.122547604 -0.32834587 -0.24680787 0.82676667
0.5017373 -1.1337522 -0.61121595 -0.15197837 -0.9573543 0.3419997 -0.06610621 -0.8879542
-1.0780805 0.61591005 0.0073932256 -1.2761004 -0.14784577 0.22363025 1.2039804 -0.14517662
-0.33954275 0.669219 -0.16548032 -0.71308297 0.22812366 0.17784496 0.15335375 0.23009874
0.025643408 0.16692056 -0.0107436795 -0.21954931 1.2389833 -0.6586118 0.15656638 1.2062769
0.64172405 0.46427658 -0.38100398 1.4110259 0.19958997 -0.45643416 0.09463697 -0.35038927
-0.27030012 -1.2614125 -0.21385287 -0.35635492 1.1496208 0.53740746 0.36935732 1.2299564
0.2527106 -0.8636726 0.39394617 -0.13254933 0.74825126 -0.7928294 0.358706 0.2215809
0.48528636 -0.43031377 -0.46440226 0.18242553 0.49387717 -0.18139967 -1.3344604 -0.2363307
-1.2713313 0.2611665 0.13880633 -0.42516908 -0.33846188 -0.13840431 -0.15599298 1.1736313
0.27217314 0.29881948 0.36398646 -0.1709182 -1.2386014 0.50141156 0.4655256 -1.3884902
0.019830469 -0.14881626 -0.17392641 -0.9355441 -0.2732867 -0.5328579 0.040872954 0.45980355

bias f4 [64]
00000000: dce9 25bf 8ece 0fbe c1bc 873e cf6f 893e
00000010: 31f2 b9be dab8 74be 55a8 663e 0a95 48be
00000020: e009 78be 0db3 553e bb1d 15bf 1fa9 46be
00000030: a352 973e 6f56 0a3e 1fcc dbbe c0a8 cf3d
00000040: 3dcc 1b3f d8a5 bf3e 5c81 fabe 1657 dd3c
00000050: c4c0 cdbe fd66 98bd 4d41 0abf 2499 9abd
00000060: 281b 51be 3245 ec3e 356c 5cbf 00ea 42bf
00000070: e17f 5dbf 2f1d 4d3e 35e7 4e3e 861e 163f
00000080: 83e3 ce3d 1629 6fbf c67a 5fbc 2d90 b33e
00000090: d1f8 88bc 6f43 b0be 2a52 e13e 7136 a23e
000000a0: 61b8 36be 00e7 30bd 3e28 02bf c8af 30bf
000000b0: 4690 32bf 9d4c 68bf b170 bd3e a940 82be
000000c0: 041b d13d 037d f2bc f51c 7cbc 75ab 4abf
000000d0: 59db c8be 1642 1e3f 2c60 b5be 41ac 5dbe
000000e0: cab2 6a3e 7560 d4be 0efc f03d 78af 7bbf
000000f0: 7f59 d5be 0c8e 3bbe af0f babd 6dfe d7be
-0.64809966 -0.14043638 0.26511195 0.26843116 -0.3631759 -0.2389864 0.22525151 -0.19588104
-0.24222517 0.20869084 -0.5824849 -0.19400452 0.29555234 0.13509534 -0.4292917 0.101396084
0.6085852 0.37431216 -0.48926818 0.027019065 -0.4018613 -0.074415185 -0.5400589 -0.075487405
-0.20420516 0.46146542 -0.8610261 -0.76138306 -0.8652325 0.20030664 0.20205386 0.58640325
0.10101988 -0.9342207 -0.013640111 0.35070935 -0.016720207 -0.34426448 0.44008 0.3168216
-0.17843772 -0.04318905 -0.50842655 -0.6901822 -0.69751394 -0.907419 0.3700004 -0.25439957
0.10210231 -0.029600626 -0.015387763 -0.7916787 -0.3922985 0.6181959 -0.35424936 -0.21647741
0.22919765 -0.4147984 0.117668256 -0.9831462 -0.41669843 -0.18315905 -0.09085023 -0.421863

weight f4 [64, 64]
00000000: 433f 3abd 9a88 48be bfc9 8dbe 0b36 b73d
00000010: 3bf6 563e edaf 4a3d 0062 78bf af8c 3c3e
00000020: 9b86 16be f2d1 93bd d097 6f3d 4839 12be
00000030: 4825 85bd 8502 10bf 8841 10bd 2028 f1bd
00000040: 0a8b d23d 8e89 a7be 7e2d 47bc 8abc d93d
00000050: 780d a73d 34aa 84be 7e61 fd3c 38cd 983e
00000060: 8383 113e fa8e 40bf 5455 913e 46ad 093e
00000070: ff34 143d fb23 1bbf 3da0 053e 5db1 6bbc
00000080: e891 373d f529 a83e 7d53 f73d 8ccc fdbc
00000090: f281 bbbd 3b40 03bb 9c3c 1bbe d50f 9ebd
000000a0: 5201 4fbd 645a 11be daeb 8abd 0b1f 803e
000000b0: 5241 a7be dd12 a2bd b623 7ebe 6a78 263e
000000c0: acb0 323d 79f3 e2bd 16c8 2abe c87e 42bd
000000d0: c125 a1bd cf06 6fbd 4565 303d aeb6 3bbb
000000e0: bfca 47bf 2371 1bbd 00a9 a13e ecaf 9d3e
000000f0: ca28 d63d 5146 973d 017c 4c3e 6806 91bc
00000100: 2862 0ebd e977 97bd 3e4f 07bd fb96 fdbc
00000110: 9523 8f3b 65ab 813d 90c4 4b3e a832 c13d
00000120: d8c7 55be 455d b23e 784b c0bc 0ded 4c3d
00000130: b575 57bd ed06 2bbd 8cdc d93d 9640 1fbe
00000140: 0c61 60bd 8f1b 70bd d2fe 7ebe 1320 96bc
00000150: 706f 503d 8e24 72be 3627 2d3c 5202 f6be
00000160: e214 2ebd 389f 6c3c c998 663e d425 853e
00000170: d50c e93d 6992 aa3d 7d8a d33d b924 683e
00000180: 9f67 223e c7ff 783d 6f19 293e c160 14bd
00000190: 3ec0 9ebd 3fa0 f1be 9bb9 c2bc 4423 343e
000001a0: 66fa 1a3e a23c 46be eb15 cf3d f5b9 743e
000001b0: 1781 fc3d 6448 df3e c959 18ba a920 b63d
000001c0: 0715 8e3e a812 28bd 09e1 533d b1e8 6dbd
000001d0: ef4c 2c3e 5151 ae3d d717 5e3e ddf6 a7bb
000001e0: 4121 b8bf c8a6 23bc 1088 ab3e af84 363e
000001f0: 4a95 69be 491b 6abc 5eed 0b3e 6a10 93bd
00000200: 996d e4be 36fa 0b3e 2a3c 79be c615 243e
00000210: 8528 b7bd ab5e 46be b188 e3be 5740 05be
00000220: 5c71 133d b22e b2be 48a7 17bf ad0a bb3d
00000230: ead5 083e d81e 15be 737e 45be 5330 aebc
00000240: 1570 e3be 2adf e2bd ab6a 1d3e d87c efbd
00000250: 71db 29bf 547e 07bd 435c 0cbf ea5e f8bd
00000260: 3e5a f9be cb3d 29bd 502c 9c3c 2a34 323b
00000270: 5756 123d a7d6 40be 5411 9fbd a4bb 9fbe
00000280: 74e9 88be 20a7 f73d 56ae 3bbf 82a0 5e3e
00000290: 0692 74be 9784 03be be0b 66bd 4ba5 c1bd
000002a0: 4d47 f23d 3608 7e3d a0ab 943d 00f0 9bbd
000002b0: 90c6 14be 1a93 7dbe a6d9 a43c 9219 75be
000002c0: 6ceb 313c 6945 ecbe f10f 34be 9f2e c6bd
000002d0: 7e4a c5bd 4c10 9ebe 91a5 e6be 373d c5bd
000002e0: 537d 103e bf12 07bf da92 fcbe 6098 c63c
000002f0: 0810 92be e744 d43c e461 2f3e 15d7 efbe
00000300: 68cc 0d3e d6c3 fa3d 8271 49bf 71a5 933d
00000310: 0466 21bf 6730 80bd aa26 86be febb 303d
00000320: 846f 9c3d 7edb e0be ddd3 603e cf21 98bd
00000330: 23d1 b93e 8974 f1bc f2b5 0abe eb32 ca3e
00000340: f0e8 58bf 783e 963e 1f8a 98be 55c0 78bd
00000350: e377 283d eb63 febc affd 3b3e 6472 843e
00000360: 9c3c 73be f832 3dbe ad5a e8bd b209 cd3d
00000370: 03cd 8dbd 6802 b53d ed50 2dbf 77c6 15be
00000380: 213f 2fbf 42e7 39bc 2f92 e0bc 77b0 cf3e
00000390: 2895 97bf cd84 a33e 98ad 543e ec25 2b3d
000003a0: 05da 1e3c 7880 513e b4a7 18bd f4d3 ef3d
000003b0: 816f 26bf 9677 9bbe cf0a d4be 7018 43be
000003c0: 00a0 633f dc49 e1bd 3dbe 64be 9ce9 cf3d
000003d0: a2ef 183e 1f29 45bf 5126 a83d a15c f9be
000003e0: c0c6 c1be 9498 bfbb d29b 4dbf 8412 6abd
000003f0: 212e 8a3d ad78 bc3e 438f 19be 2e32 dd3d
-0.045470487 -0.1958336 -0.27692983 0.08945855 0.20992367 0.049484182 -0.97024536 0.18413042
-0.14699785 -0.07217778 0.05849439 -0.14279664 -0.065012515 -0.56253844 -0.035218745 -0.11775231
0.10280426 -0.32722133 -0.012156842 0.10631664 0.08156866 -0.25911105 0.030930277 0.2984407
0.14210324 -0.75218165 0.28385413 0.13445005 0.036183354 -0.60601777 0.13049407 -0.014385548
0.04481688 0.3284451 0.12076471 -0.030981325 -0.091556445 -0.0020027298 -0.1515984 -0.077178635
-0.05053837 -0.14194638 -0.06783266 0.25023684 -0.32667023 -0.07913754 -0.2481831 0.16256872
0.04362552 -0.11081595 -0.16677889 -0.04748419 -0.07868529 -0.058356103 0.04306533 -0.002864282
-0.7804374 -0.037949692 0.3157425 0.3079828 0.10456999 0.07386459 0.19969179 -0.01770325
-0.034761578 -0.07395918 -0.033034556 -0.030955782 0.0043682554 0.06331519 0.19899201 0.0943349
-0.20877016 0.34836784 -0.023473486 0.050030757 -0.05260249 -0.04175465 0.10637769 -0.15551981
-0.05478005 -0.058620032 -0.24901894 -0.018325841 0.050887525 -0.23646757 0.010568431 -0.48048645
-0.042500384 0.014442258 0.2251922 0.26005423 0.11379401 0.08328707 0.10329149 0.22670259
0.15859841 0.060790803 0.16513608 -0.036225084 -0.07751511 -0.4719257 -0.023770144 0.17591578
0.15134582 -0.19359067 0.101116024 0.23899062 0.123293094 0.43609917 -0.0005811719 0.08892948
0.27750418 -0.041033417 0.051728282 -0.05808324 0.16826223 0.085116036 0.21688782 -0.005125864
-1.4385148 -0.009988494 0.33502245 0.17824052 -0.22810856 -0.014288732 0.13664767 -0.07180865
-0.44614866 0.13669667 -0.24339357 0.16023931 -0.08943275 -0.1937205 -0.44440225 -0.13012825
0.03599678 -0.3480125 -0.59239626 0.091328956 0.13362852 -0.14562547 -0.19286518 -0.021263277
-0.4442145 -0.110777214 0.15372722 -0.11693734 -0.66350466 -0.03307946 -0.5482828 -0.121274784
-0.48701662 -0.041318696 0.019064099 0.0027191737 0.03572687 -0.18831883 -0.07766977 -0.31197846
-0.2674061 0.120924234 -0.7331289 0.21740916 -0.23883829 -0.12843548 -0.056163542 -0.09455355
0.11830006 0.06201955 0.07259297 -0.07614136 -0.1452887 -0.24763146 0.020123314 -0.23935536
0.010859352 -0.46146706 -0.17584206 -0.09676861 -0.09633349 -0.3087181 -0.45048192 -0.096308164
0.14110307 -0.5276298 -0.4933079 0.02424258 -0.28527856 0.025911761 0.17127186 -0.46843782
0.13847506 0.12244384 -0.78688824 0.0720929 -0.6304629 -0.06259232 -0.26201373 0.043148033
0.076384574 -0.4391746 0.2195582 -0.074283235 0.3629237 -0.029474514 -0.13545969 0.39491972
-0.84730434 0.29344535 -0.29792878 -0.060730297 0.041129958 -0.031053504 0.18358491 0.25868523
-0.2375359 -0.18476474 -0.1134542 0.10011615 -0.069238685 0.088383496 -0.6770161 -0.1462649
-0.684557 -0.01134664 -0.027413456 0.4056432 -1.1842394 0.31937256 0.20769346 0.041784212
0.009695535 0.20459163 -0.03726931 0.11710349 -0.6501389 -0.30364674 -0.41414496 -0.19052291
0.88916016 -0.11000416 -0.22338195 0.10151979 0.14935163 -0.7701587 0.08210433 -0.48703483
-0.37846947 -0.005847046 -0.8031589 -0.057146564 0.0674708 0.36810818 -0.14996056 0.10800587

bias f4 [64]
00000000: b335 a2be 88ba 59bd 19aa e13a a20b 89be
00000010: bf7a 973d ff63 653e 4867 5b3d 6c1c 90bd
00000020: 43a7 0fbd ded9 b0bc 7bad 0fbe 4b4c d4bd
00000030: 7341 553c 6789 383d 00b6 a13d eeb1 103b
00000040: 92ff 30be 82af 5ebe 3000 adbd f3b5 c2bc
00000050: b5a2 173e 0777 de3c dc6b 603e 8e86 e93d
00000060: 1c60 013e 66fb f23d a96b 4c3d 86a3 ca3d
00000070: 4b76 7d3e 1887 8c3d d709 863d 9cef 923e
00000080: 4292 5bbd 5403 1a3d a23d 29bd 92e8 38bd
00000090: 2e2d d2be 3766 8e3d d645 293e 428f e1bd
000000a0: e565 7dbc bf63 953d 93fb ab3a 32e1 2dbd
000000b0: 895b 793b 880b 99be 1004 913d 4a19 c13d
000000c0: b38d a1bc 7543 1e3e ccf3 1dbd f404 503e
000000d0: fa42 c73d 195c 553e 4f57 393e 7526 df3c
000000e0: 9602 133e 38e3 07be 01ed 3fbd 534a c9bc
000000f0: 2669 713e bdfc 213c eb60 0fbe 7f23 abbd
-0.31681594 -0.053156406 0.0017216831 -0.26766688 0.07396459 0.22401427 0.053565294 -0.07036671
-0.035071623 -0.021588262 -0.14031021 -0.10366114 0.013016093 0.045052912 0.07896042 0.002207871
-0.17284992 -0.21746638 -0.084473014 -0.0237684 0.14808162 0.027156366 0.21916145 0.114026174
0.12634319 0.11864357 0.04990736 0.09894471 0.24752156 0.068617046 0.065448456 0.28698432
-0.05360628 0.03760083 -0.041318543 -0.04514367 -0.41050094 0.0695309 0.16530547 -0.110136524
-0.015466188 0.07294416 0.001312124 -0.04245109 0.0038048944 -0.2989161 0.07080853 0.09428652
-0.019720888 0.1545542 -0.03856258 0.2031439 0.09729572 0.20835914 0.18099712 0.027240017
0.14356455 -0.13270271 -0.046856884 -0.024571573 0.23575267 0.009886918 -0.14001815 -0.0835638

weight f4 [1, 64]
00000000: de9f 9b3e 6096 7a3e cb0f 5cbf 6456 1e3f
00000010: 29f1 783f 9d7a b23d 94a1 8e3f 54ca 2ebe
00000020: e6a2 143d 1fa7 8cbb 072c de3d 91d4 b33f
00000030: f28b 0940 b852 aebc 696a 7e3f 1ad6 3fc0
00000040: 711a ac3f 1ab4 1ec0 3fc7 81be 130e d2bd
00000050: db51 edbe 3d29 d7be 0d9e 1940 5cd6 d33e
00000060: baa3 38bf 8828 a3bd 07d6 d5be 7133 fe3d
00000070: 88b7 a0be c591 ad3f 912b a93e af7a 953e
00000080: 517c 403d 1a8b 2940 eae6 623e f53e f3bd
00000090: c275 2dbf caef 283f 9ea4 243e 6846 c73c
000000a0: 4ea6 303e 6f20 c9be 6a37 85be edc5 fa3d
000000b0: 0e30 43bf 30fc ef3e b358 443d 6a9e 85bd
000000c0: 44a5 c53d 41c0 693e 1168 55bc 2159 b2be
000000d0: dbcf d1be 9ee6 16bf 5bd3 323f 7af7 0940
000000e0: 65b1 e53d 148c ad3e a6b1 863e c909 2b3f
000000f0: 95c8 02bf 27d6 b8bd 40c5 eebc f584 5b3e
0.30395406 0.24471426 -0.859616 0.6185057 0.9724298 0.08714793 1.114306 -0.1706937
0.036288165 -0.0042923833 0.10848241 1.4049245 2.1491666 -0.021279678 0.9938112 -2.9974427
1.3445569 -2.4797425 -0.25347325 -0.10256591 -0.46351513 -0.4202365 2.4002717 0.4137448
-0.72124827 -0.07966715 -0.41764852 0.124121554 -0.31390023 1.356011 0.3304105 0.29195163
0.046993557 2.649115 0.22158399 -0.118772425 -0.6775781 0.6599089 0.16078421 0.024325565
0.1725094 -0.39282557 -0.2601884 0.122447826 -0.762452 0.4687209 0.047936153 -0.06524356
0.096506625 0.22827245 -0.0130253 -0.34833625 -0.40978894 -0.58945644 0.6985375 2.1557298
0.11215476 0.33895934 0.2630741 0.66811806 -0.51087314 -0.09025221 -0.02914679 0.21437438

weight f4 [64, 4]
00000000: 5bc4 30bf f8ba 2abf 6e29 a63e 6345 2abe
00000010: 59ad 68bf 5d81 85bf 3e81 a9be ebb8 0dbe
00000020: 5875 7fbf 1639 773e f716 203f eb33 96bd
00000030: 1ed9 983e 3e37 14c0 be2e f7be 72b5 2fbd
00000040: e425 f13f ebfd 8cbe 339f 9b3d e487 64bd
00000050: d37d 73bf 476b 33be f33d 61be 426f 62be
00000060: b301 b63e dbc3 1c40 8daa fd3e 19b9 c13b
00000070: 2238 a0bf d849 fdbf 1087 30be 2418 1c3e
00000080: 8f3c 913e cdc0 15bf eb53 c33c 9d74 72be
00000090: 2798 7abf 7373 2f3f 0f64 873e 50fa 2d3e
000000a0: 918d 9e3b df2d dcbe dfc8 bebe 4945 00bf
000000b0: 4118 58bf 918b eb3e d63b 893e 91eb 2c3e
000000c0: d9ed 38bf 54ba 3e3e 00fd 733e 197c 0b3e
000000d0: 773f 46bf 2b4b d8be 5af2 58be 1d45 3bbe
000000e0: b9ad 64bf aea8 4b3f 4ab9 36be 211b a23d
000000f0: 8c60 e23e 6ed9 02be 0346 14bc 0a60 7abd
00000100: 17b1 a53d 1dfe 153f 5467 7cbe ca7a a0bc
00000110: ec34 5fbf 95e3 ca3e b77a 88be cf8e a5be
00000120: 600f 42bf 5b59 2ebf 0384 aebe 210e 8f3e
00000130: 32fd 0dbf b345 bb3f e170 a13e 4671 043e
00000140: 508d 04bf 7386 7f3f 0c5e c23e c08f 0a3e
00000150: bbad 983e fc83 5fbe 065d a0bd 048e a93e
00000160: 9572 20bf d619 a93f 978e a83e 1ee7 0fbd
00000170: f348 953f e543 563f 2a49 8fbe de9c a33d
00000180: 8010 5bbf 1b88 483f d0f1 7f3e a6a2 233e
00000190: 3fe5 96bf a93c 92be 135d 483e 8f22 c93e
000001a0: 3101 7dbe 0d0e 61bf e119 11bf eaef 3d3e
000001b0: 84d5 82bf 459a 003f 6a07 743e e874 9cbd
000001c0: e550 d8bd 135b 1f3f 37e6 eabe 081c 2dbe
000001d0: 41eb a83e a1d6 983f 9204 e63c 52db e13d
000001e0: a2f5 a83e 180a 80be a05d d03c 5748 b83d
000001f0: 29ea 74bf ab78 413c dd5a 88be a3ad 93bd
00000200: c8fe 063d f84a 0abf 5a7c a2be 6204 e3be
00000210: dd22 353e 1002 843d 631d 333f eb21 d93c
00000220: 1b3f 0ebf 8f84 a63f 4238 993e ee86 b13d
00000230: 3b15 c6be 072e 3ebe 8a36 993e 4233 443c
00000240: 1c5d 03bf b0c4 ee3f 74c7 d23e 9a3f 6a3d
00000250: dcae 06bf adb6 bebf 42d3 abbe 3dfe eabc
00000260: a767 063e 0f27 8cbe 9fff d7be 16ee febd
00000270: cbf2 82bf e743 1abf 2190 9e3e 71c7 17be
00000280: 1b6c 7cbf 2f6e 2abf 524b 9fbe 4037 c0bc
00000290: 8218 2bbf 7647 863e 7ac7 393e dead e93d
000002a0: 717e 0dbf 34da 2abd 1233 98be 1925 c1be
000002b0: 8983 c3be 2166 9cbf 6b28 15bd d905 58bd
000002c0: 6179 81bf 70e5 0f3f 2185 b23e 0d2a d3be
000002d0: 9eff 1abf ce47 65be 2861 233f 7e4c f63d
000002e0: 9596 81bf 5b2f b53e 97ab 743e e7fd 3ebe
000002f0: 44a2 e8be ee2d 543f 99b0 a23e 8373 3fbe
00000300: efff 4fbf 0196 6ebf adc0 043f e92e 273e
00000310: f8a9 5b3e 0364 a2bd 8bad bcbe 2159 083e
00000320: 0428 27bf bbb1 253f ef3b 94be d9ef 96bd
00000330: 55b2 35bf 5327 82bf 5a05 0b3d 8574 d23e
00000340: 3ea1 b4bd d6aa db3f 5f93 053c d998 f1bd
00000350: 9d4b 1cbf 5329 8abe 69ba 60be 298e 78bc
00000360: d99e 61bf c9ba 103f 1cf0 443e 65e3 533e
00000370: b055 31bf 5ac9 8c3f 01da a53e 4491 8bbe
00000380: b82a 4cbf 5775 2ebf 411a 86be 2bad e6bc
00000390: ec51 11be 0037 243f 0aa8 243f ab3e ac3d
000003a0: a278 1dbf 1e0f 8fbf b9e7 93be 3151 f9bc
000003b0: b930 e93e 4b72 0340 8758 bc3e c666 953d
000003c0: 345b 16be d7c3 71bf 8590 c93e 9bf0 373e
000003d0: 925a aabe 3837 babf 1f86 b33e ea60 d0bb
000003e0: 1bdc adbe ba22 cdbe 185f ba3d 7ebd 4f3e
000003f0: e242 d4bf 1d0f a33f 6ba3 8b3e 6ce0 79bc
-0.69049615 -0.6669154 0.32453483 -0.16628031 -0.9088951 -1.0430104 -0.33106416 -0.13840072
-0.9978843 0.2414287 0.6253504 -0.07334121 0.29853147 -2.3158717 -0.4827785 -0.04289765
1.8839688 -0.27537474 0.07598724 -0.055793658 -0.9511387 -0.17521392 -0.21996288 -0.22112754
0.3554817 2.449454 0.49544182 0.005911958 -1.251713 -1.978816 -0.17239022 0.15243584
0.28366515 -0.58497316 0.023843726 -0.23677297 -0.97888416 0.68535537 0.26443526 0.16990018
0.0048386534 -0.43003747 -0.37262627 -0.5010572 -0.8441201 0.46004918 0.26803464 0.16886736
-0.72237927 0.18625766 0.2382698 0.13621558 -0.7744059 -0.4224485 -0.211862 -0.18288083
-0.8932758 0.7955426 -0.1784412 0.07915331 0.44214284 -0.12778255 -0.009049895 -0.061126746
0.08090418 0.5859087 -0.24648792 -0.0195898 -0.8719013 0.39626756 -0.26656124 -0.32335517
-0.7580471 -0.68105096 -0.34085092 0.27940467 -0.5546447 1.4630646 0.31531432 0.12933835
-0.51778126 0.9981453 0.37962377 0.13531399 0.29820046 -0.21827692 -0.07830243 0.33116162
-0.6267484 1.321101 0.32921287 -0.03513252 1.1662887 0.8369735 -0.27985507 0.079889044
-0.8557205 0.7833268 0.24994588 0.15980014 -1.178871 -0.28561905 0.19566755 0.3928418
-0.24707486 -0.87912065 -0.56680113 0.18548551 -1.022141 0.50235397 0.23830953 -0.076394856
-0.105623044 0.62248343 -0.45878765 -0.16905224 0.32991984 1.19405 0.028078351 0.1102816
0.32999903 -0.250077 0.025435269 0.08998173 -0.956698 0.011808555 -0.26631823 -0.07210853
0.032957822 -0.54020643 -0.31735498 -0.4433928 0.1768908 0.06445706 0.69966716 0.026505431
-0.5556504 1.3009204 0.29925734 0.08668314 -0.38688073 -0.18572246 0.29924423 0.011975111
-0.5131395 1.8653774 0.41167796 0.05718956 -0.52610564 -1.4899498 -0.33559614 -0.028685683
0.13125478 -0.2737355 -0.4218721 -0.12447755 -1.0230345 -0.6025986 0.30969337 -0.14822175
-0.98602456 -0.66574377 -0.31112152 -0.023463845 -0.6683427 0.26226395 0.181425 0.11410116
-0.5527106 -0.041712 -0.29726464 -0.37723616 -0.3818629 -1.2218667 -0.0364155 -0.05273995
-1.0115167 0.5620947 0.34867194 -0.4124302 -0.6054629 -0.22390673 0.63820124 0.120263085
-1.0124079 0.35387692 0.23893581 -0.18651544 -0.454363 0.82882583 0.31775358 -0.18696408
-0.812499 -0.9319764 0.518565 0.16326489 0.21451557 -0.07929232 -0.36851153 0.1331525
-0.65295434 0.6472432 -0.28951976 -0.07369966 -0.7097524 -1.0168251 0.03394065 0.41104522
-0.08819817 1.716151 0.008152812 -0.117967315 -0.61052877 -0.26984653 -0.2194611 -0.015170612
-0.8813301 0.5653501 0.1923222 0.20692213 -0.69271374 1.0998948 0.32392886 -0.27259266
-0.79752684 -0.68147796 -0.26191905 -0.028158745 -0.14191407 0.64146423 0.6431891 0.084103905
-0.61512196 -1.1176488 -0.28887728 -0.030434223 0.45544985 2.053851 0.3678629 0.07294993
-0.14683229 -0.9443945 0.39368072 0.17962877 -0.33272225 -1.4548101 0.35063264 -0.0063592093
-0.3395699 -0.40065557 0.09100169 0.2028713 -1.6582911 1.2738987 0.27273116 -0.01525126

bias f4 [64]
00000000: 8381 8a3f f227 663f 56fe 08bf c20c d6be
00000010: 972a 3e3f f42b a53f da15 1ebe e74a 6b3e
00000020: 3aba 5d3f a979 843f eb61 8c3f 5242 9d3f
00000030: ce64 a63f 592f 4e3f cde0 1ebf ad2c 893f
00000040: f85c 873f 4bd6 733f 793b 863f 095f fd3e
00000050: a32a fabe ee85 933f 2682 363f ab87 31bf
00000060: dd97 593f 81bc 6a3f 995b 22bf 8563 343f
00000070: f80b 0abf 1141 a43f fc87 8e3f 2c79 b93f
00000080: 702e 1e3f 25fa 2c3e 9d38 133f e905 a23f
00000090: 5334 183f 8124 c93e 30cd 5c3f 7622 923f
000000a0: d3d5 873f d9d3 603f 9dcc 813f 0121 0b3f
000000b0: 653d 993f f12f e2be 6723 423f fbc3 7d3f
000000c0: 34ef 0dbf f35c 783f 206d 93be 762a 5a3f
000000d0: c8d7 973f 06d2 6f3f 702a 303f 9896 3c3f
000000e0: 0623 4c3f 65d2 e3bd 118d 093f 779d b13e
000000f0: 432c 8ebd 96ef 75be 2011 613f af0f ee3d
1.0820774 0.899047 -0.53513086 -0.41806608 0.74283737 1.2904038 -0.15438023 0.22977792
0.86612284 1.0349628 1.0967382 1.2285864 1.2999513 0.80540997 -0.6206177 1.0716759
1.0575247 0.9524886 1.04869 0.4948657 -0.48860654 1.1525247 0.7129234 -0.6934764
0.8499735 0.91693884 -0.63421017 0.70464355 -0.5392451 1.2832357 1.1135249 1.4490104
0.6178961 0.16892298 0.5750826 1.2658054 0.5945484 0.39285663 0.8625059 1.1416767
1.0612129 0.87823254 1.0140568 0.54347235 1.1971861 -0.441772 0.7583527 0.9912717
-0.5544312 0.9701683 -0.28794193 0.8522104 1.1862726 0.93679845 0.68814754 0.7366729
0.7974094 -0.11124114 0.53730875 0.3469045 -0.06942036 -0.24017176 0.87916756 0.11624085

weight f4 [64, 64]
00000000: 7448 b6bd e52b bdbd 6838 dcbd a67f bb3d
00000010: bb7f 743d b4ca 433c d245 87bc c86c 03be
00000020: 9189 91bd 480b 0ebd 414b 93bd 62c6 01be
00000030: 154b ac3d 633d 83bc 375d 0d3c a8a8 d23d
00000040: 5590 823d 933b 62bd f30f 2ebd fcde 2e3d
00000050: 8036 8d3c 8494 fbbc e801 b3bd f133 1b3c
00000060: 8c04 b9bd 1721 fabd a49c 103d 98fd 5d3d
00000070: 2bda de3d 3c00 f5bd df40 a43d 43f5 b1bd
00000080: 6954 d33a 2bce a2bd 9435 82bd 9ca4 b13d
00000090: 9af8 963d e67f 1a3d 1535 1d3c 2940 7ebd
000000a0: d128 e7bd aae4 233d 01a8 333b ecc3 bbbd
000000b0: 1078 9a3d e0ad dabc 6324 c53d fac9 05be
000000c0: c0b9 dd3b 9d25 f3bd 6078 543d ad7c e63d
000000d0: 94c2 80bd 1217 bf3d 4ce9 d6bc 77a2 2c3d
000000e0: 301d d8bd 227e 333d 98d7 5b3d 1486 b53d
000000f0: cf26 673c 907d fc3c 65c5 ec3c 5c8e 34bd
00000100: 9b06 03be 7761 933b d30a 5abc 4ca6 1ebd
00000110: 6174 39bd 6f92 9abc 0c41 fd3d f62c d2bd
00000120: 86f3 07be 1a36 f1bd 6b65 ddbd 7e15 7b3d
00000130: 3bf0 adbd b62e 2cbe f054 9eba 21a1 d0bd
00000140: eaf1 3c3c b8f3 fabc d364 d2bd 02d7 fa3d
00000150: a23d 963d 43f8 00be c9a7 383d 36cf 53bc
00000160: 5065 8cbd 825a 93bd 0888 f13d c521 cebd
00000170: 0225 2a3d cc9c ab3c e784 393d 4689 19be
00000180: 73a5 62bc d8c1 21bd fa6a f93c df40 5abb
00000190: 85a8 bdbd 7841 813d 098a c7bd e5fe 11be
000001a0: 172f 10be b60e 0dbe 5d5a e2bd 566f 0e3d
000001b0: 2ab4 fbbd 8760 843d 3ee2 debd ac11 283c
000001c0: adf2 9e3c 749e 01be 4cc9 cebc 43f3 ae3b
000001d0: 4c05 94bd baa6 dfbd 38b2 8c3d 2f85 643d
000001e0: 0e02 06be ae25 d13d 65b9 bebd f9e7 d53d
000001f0: 506d 93bd df56 c5bd d706 283d 91e7 b53d
00000200: 163c ec3e 0b8e aa3e e130 0bbf 99bb 2f3e
00000210: 5cce 733f 5c15 d43e 2497 a63d fea7 8a3e
00000220: 2fd8 273f da81 fb3e d8b0 913e b15a db3e
00000230: 02dc 013f 11a8 823e 5b9f a0be 3127 153f
00000240: d2e3 693e 9513 883e 9c07 a03e b089 e53e
00000250: d097 14bf 6aa4 fb3e 2ab0 ae3e 5b5b f33e
00000260: cecc 103f 238c 0f3f 443e 59be 3a48 b13e
00000270: 704b c8be cfad 493f b2ff 3d3f 4b49 d93e
00000280: 5ac1 333e d64f 90be 2cfd c43e a2f8 f13e
00000290: 4bdc 8a3e 9693 1a3e a893 603d 3ef2 033f
000002a0: 2afa 6b3e 9923 cd3e 7349 ae3d b815 e33e
000002b0: 0b6b e43e f53a 0bbf 8410 be3e 510a a63e
000002c0: 4212 0bbf 51b1 df3d d9d6 3dbe c8a3 f13e
000002d0: 0bdf e83e 34ac 6c3e 968e ac3e afff d03e
000002e0: 43a5 b13e 4940 00bf e5e6 903e b157 42bd
000002f0: a915 c5be df82 21bf 64af 0a3f c231 683e
00000300: 29d2 d53d c221 40bf 233b 7fbd d605 3cc0
00000310: 4097 83bd 630a 593e b9ab b2c0 2e6c ea3e
00000320: 4af1 273e e609 d23b 9d0b b73c fbe7 173e
00000330: fe9f 553e 0fc2 2f3e 1038 803f 38f7 de3d
00000340: 6ccf d13e ec7f 713e 44ae 87be ecb5 75bf
00000350: 235b 513e fd2a f63d ca08 2bbf b4ec a9be
00000360: d741 aabd 3847 04be 5554 80bf a843 aa3e
00000370: e0bb 5b3e 27a4 bd3e e38a bd3d 57a3 8e3e
00000380: fde7 c5bd d678 26bc 662f 9dbf 5ca0 993d
00000390: 85ae e1bf c930 84bf ff89 973d 5443 b23b
000003a0: 8454 98be 2a76 853d 3eda 133e d8ee c23e
000003b0: 8544 e63d e659 0cbe a08a c33e 40a2 6d3d
000003c0: d19f 45bd 0f40 94bc 2edd 4f3f 0c68 673d
000003d0: 9c17 103e 948a 1c3e dcc9 76bc 5625 96be
000003e0: 40ab 23bf fc1a 7fbe 2b4d 6bbf 86b2 423d
000003f0: 33a2 07bd cadd 133d 2984 7d3e 36ac 5e3f
-0.08900538 -0.09236888 -0.10752946 0.091552064 0.059692126 0.011950184 -0.016512785 -0.12834466
-0.07106317 -0.034678727 -0.07192088 -0.12673333 0.08412758 -0.016020482 0.008628181 0.10286075
0.063751854 -0.055232596 -0.04249568 0.042693123 0.017237902 -0.030710466 -0.08740598 0.009472833
-0.090340704 -0.12213343 0.035305634 0.054196924 0.10881456 -0.11962935 0.08020186 -0.08689358
0.0016123179 -0.0794948 -0.063578755 0.08673975 0.07371636 0.03771963 0.009595175 -0.062072907
-0.11287082 0.040012993 0.002741337 -0.091682285 0.07542431 -0.026694238 0.09626081 -0.13065329
0.006766528 -0.118724085 0.05187261 0.11254249 -0.06287113 0.09330572 -0.026234291 0.042147126
-0.10552442 0.04382146 0.053672403 0.08863464 0.014108374 0.030821592 0.028902719 -0.044081077
-0.12795489 0.0044977027 -0.013308245 -0.03873281 -0.045277003 -0.018868653 0.12365922 -0.10262482
-0.1327649 -0.11777897 -0.108103596 0.061299793 -0.08493086 -0.16814694 -0.0012079757 -0.10186983
0.011532286 -0.030633792 -0.10273137 0.12248041 0.07335974 -0.12594704 0.045081887 -0.012927821
-0.06855261 -0.07194997 0.11793524 -0.10065035 0.0415392 0.02094879 0.04529276 -0.14993772
-0.0138333915 -0.039491504 0.030446518 -0.0033302826 -0.09260658 0.06311315 -0.09743125 -0.14257391
-0.14080463 -0.13775143 -0.11052392 0.034774147 -0.12290223 0.06463724 -0.10882996 0.01025812
0.019402826 -0.12658101 -0.02524247 0.0053390577 -0.07227573 -0.109204724 0.0686993 0.055791076
-0.13086721 0.10212265 -0.09312705 0.10444636 -0.07198584 -0.0963571 0.041022148 0.088820584
0.46139592 0.33311495 -0.5437146 0.17161407 0.95236754 0.41422546 0.081342965 0.27081293
0.65564245 0.49122506 0.28455234 0.4284263 0.5072633 0.2551885 -0.3137158 0.58262926
0.22840813 0.2657744 0.31255805 0.4483161 -0.5804415 0.49148875 0.34118778 0.47530636
0.5656251 0.56073207 -0.21215159 0.34625417 -0.39120054 0.78780836 0.74218285 0.4243873
0.17554227 -0.2818591 0.38474405 0.47260004 0.27121195 0.15095362 0.054828316 0.5154151
0.23044649 0.4006622 0.08510103 0.44352508 0.44612917 -0.54386836 0.37121975 0.32429746
-0.54324734 0.10922492 -0.18538989 0.47195268 0.45482668 0.23112565 0.33702534 0.4082007
0.34696397 -0.5009809 0.2830116 -0.04744691 -0.38493088 -0.6309032 0.54173875 0.22675231
0.104404755 -0.7505151 -0.062312257 -2.9378562 -0.06425333 0.21195368 -5.583462 0.4578566
0.16400638 0.0064098714 0.022344405 0.14834587 0.20861813 0.17163871 1.0017109 0.10886997
0.40978563 0.23583955 -0.26500142 -0.95980716 0.20444922 0.12019918 -0.66810286 -0.33188403
-0.08313339 -0.12917793 -1.0025736 0.33254743 0.21458387 0.370393 0.09255006 0.27858993
-0.09663389 -0.0101606455 -1.228009 0.07501289 -1.7631384 -1.0327388 0.073993675 0.005440155
-0.2975198 0.06516679 0.14438722 0.38072848 0.11243538 -0.13706169 0.381917 0.05801606
-0.048248116 -0.018096952 0.8119687 0.05649571 0.14071506 0.15287238 -0.015062775 -0.2932536
-0.6393318 -0.24912637 -0.91914624 0.047533534 -0.03311367 0.036100186 0.24757446 0.86981523

bias f4 [64]
00000000: f9e5 83bd a039 bf3d 2d5f 1b3f b54a d63e
00000010: 491d 423f 5f78 a23e 9acd 133f 0831 0b3f
00000020: bf4d 103f 78a2 ea3c aff5 e13e 94bb 80bd
00000030: 96d7 103f 879f eb3e 0d60 d6bd 778e e03b
00000040: c7cf 063f 8ad5 56bd ef7f 463f 5753 403f
00000050: aec2 343f b225 3c3f b486 9bbd c7d8 9abd
00000060: 6ca9 353a 4e61 073f 04cc 85bd 8247 023e
00000070: 3bdf 163e 32d3 f53e f382 1d3f 8a0d 2c3f
00000080: 25d4 893e 8a66 74bd 1722 1f3f 7ba7 5ebd
00000090: 393e 1f3f 596d 1f3f d3a6 5dbd c5cc 40be
000000a0: c689 57bc 77f0 253f 034f f73c de52 fa3e
000000b0: eb27 3e3f 123c 283f 3bfb a63e cf9c bf3b
000000c0: 36ff ec3e 604f ffbd 1620 923c 1a5b 1c3f
000000d0: 51cd 2fbe 440f 243f 3d37 66bd 8304 273f
000000e0: ae64 ce3e 44e4 133f ea21 1e3f a256 a13d
000000f0: 8389 cb3e 6026 2c3f afc1 213f fc84 cabd
-0.06440348 0.09337163 0.606921 0.41853872 0.75825936 0.3173246 0.577356 0.5437169
0.5636863 0.028641924 0.44132754 -0.06285778 0.5657896 0.46020147 -0.10467539 0.0068529206
0.52660793 -0.05244974 0.7753896 0.75127167 0.7060956 0.7349502 -0.07594052 -0.07560878
0.0006929848 0.5288285 -0.065330535 0.1272259 0.14733593 0.48012692 0.6152794 0.6720816
0.26919666 -0.0596681 0.6216139 -0.05435894 0.6220432 0.62276226 -0.054114174 -0.18828113
-0.013155406 0.64820045 0.030189043 0.48891348 0.7427966 0.6571666 0.3261355 0.0058475505
0.4628846 -0.124663115 0.017837565 0.6107651 -0.17168166 0.64085793 -0.056205023 0.6524126
0.40311188 0.5777018 0.617705 0.07877852 0.3975335 0.67246056 0.6318616 -0.09888646

weight f4 [1, 64]
00000000: 1b6e 8f3d bddb bebd d140 fbbe 5f5a a240
00000010: ef26 2bbf def7 9240 7277 07bf af6b 15bf
00000020: b487 16bf a679 a1bd 5449 19bf 109d 17bd
00000030: 0f80 29bf e344 21bf cd4b 7a3d 9afd 973c
00000040: 33d2 13bf b13f 233c d03a 09bf 908e 0dbf
00000050: 3b47 3ebf 6bfb 1cbf 617e 243f fd10 4d3f
00000060: 6372 e9bf f283 10bf 1e5c 343f f2c1 6f3f
00000070: f4a7 743f f627 b1bf 906c 15bf f303 11bf
00000080: 9231 783f 5da9 84bc 5c38 8140 b480 bd3d
00000090: d253 0dbf 2526 17bf c054 7cbd 63dc 143f
000000a0: bd1c 843d d326 19bf 13cc 863c 8dfd 20bf
000000b0: fa7c 07bf 73ef 09bf 909c a540 47b5 c53d
000000c0: 90de 14bf 37ed 6e3f b13c ef3b c314 04bf
000000d0: 0397 233f 0d63 01bf a217 9a3d 7af7 02bf
000000e0: c345 81bf c434 0dbf 9b98 24bf 164d 3d3f
000000f0: 3fa9 5dbf 35e2 1cbf f391 95bf cc04 1a3f
0.07003423 -0.093192555 -0.49072888 5.0735316 -0.6685628 4.592757 -0.52916634 -0.5836744
-0.58800817 -0.07884531 -0.59877515 -0.03701502 -0.66211027 -0.6299574 0.061107446 0.018553544
-0.57742614 0.009963916 -0.53605366 -0.5529566 -0.7432744 -0.61321133 0.6425534 0.8010405
-1.8238033 -0.5645133 0.7045306 0.9365531 0.95568776 -1.384032 -0.5836878 -0.5664665
0.9695064 -0.01619404 4.03813 0.09253064 -0.55206025 -0.5904258 -0.06160426 0.58148783
0.06450794 -0.59824866 0.016454732 -0.6288689 -0.52925074 -0.53880996 5.1753616 0.096537165
-0.58152103 0.9333071 0.007300936 -0.5159418 0.639023 -0.50541764 0.07524039 -0.5115887
-1.0099415 -0.5515864 -0.6429536 0.7394575 -0.86586374 -0.61282665 -1.1685165 0.6016357
