saved/bipedal_q4_latest_128_64_32.pt (torch, 476009 bytes, 60 tensors)

weight f4 [128, 24]
0	0x3e9aa472	0.30203587
1	0x3fa651e7	1.2993745
2	0xbe17ef22	-0.14837316
3	0xbe29fe40	-0.16600895
4	0x3e3c7946	0.18405637
5	0x3d9f35b4	0.07773915
6	0xbdc8c716	-0.09803598
7	0xbd2d9b47	-0.042384412
8	0xbe9033e1	-0.2816458
9	0xbe879925	-0.26484028
10	0xbe82d1f7	-0.25550815
11	0xbe4bb342	-0.198926
12	0xbd1b8305	-0.037966747
13	0x3b8ded68	0.0043312795
14	0xbde514d0	-0.1118561
15	0xbdb67f11	-0.08910955
16	0xbcbfe812	-0.02342609
17	0xbdb4ea42	-0.08833744
18	0x3e7aa220	0.24475908
19	0x3e3b6ac0	0.1830244
20	0x3e902cfc	0.2815932
21	0x3e14fd99	0.14549865
22	0x3d4fe54d	0.050755788
23	0x3db68711	0.089124806
24	0x3f15450c	0.5830848
25	0x3f790445	0.9727214
26	0xbeb84c86	-0.35995883
27	0xbe23702b	-0.15960757
28	0x3e86aa00	0.26301575
29	0x3ddecb70	0.108786464
30	0x3e5bca8f	0.21463989
31	0xbe664aec	-0.22489518
32	0xbe63849b	-0.22218554
33	0x3dd6a865	0.104813375
34	0xbcef1989	-0.02918698
35	0x3c9235b0	0.017847866
36	0x3d27b8f4	0.04094787
37	0xbec821a3	-0.39088163
38	0x3ce48cdb	0.027899196
39	0x3e5b5235	0.21418078
40	0x3db5da95	0.08879582
41	0x3deba846	0.11506705
42	0x3e538f77	0.20660196
43	0x3e704b5f	0.23466252
44	0x3d082d2f	0.033246215
45	0x3e5ef440	0.21772861
46	0x3d4e29f7	0.05033299
47	0xbe39d93a	-0.18149272
48	0xbcb8cfde	-0.022560056
49	0xbf72e167	-0.94875187
50	0x3f07d4a2	0.53058827
51	0xbd95afab	-0.07308897
52	0x3ea02ad6	0.3128268
53	0x3e24c0c4	0.16089159
54	0xbe170c95	-0.14750893
55	0x3c66d726	0.014089381
56	0x3c49b214	0.012310524
57	0xbf0c782e	-0.5487088
58	0xbd1a0ef0	-0.0376119
59	0xbed55d9e	-0.41672987
60	0x3c653f7c	0.013992187
61	0x3e2c5e12	0.1683276
62	0x3e6bc179	0.23023023
63	0x3e91afaa	0.28454334
64	0x3d9f35e0	0.07773948
65	0xbde36df0	-0.11104953
66	0xbde0c20a	-0.1097451
67	0x3e95d317	0.2926261
68	0x3da62b25	0.08113698
69	0xbd626e0a	-0.055280723
70	0x3e7935d1	0.24336936
71	0xbda3c09d	-0.079957224
72	0x3e47782e	0.19479439
73	0xbf31b471	-0.69415957
74	0x3d9e6f32	0.077360526
75	0xbf00fe13	-0.50387686
76	0x3ea48954	0.32136023
77	0xbe82f68d	-0.25578728
78	0x3e5c96a9	0.21541847
79	0xbc96cb2a	-0.018407423
80	0x3d670c86	0.056408428
81	0xbe70119d	-0.23444219
82	0x3e9e8a03	0.3096467
83	0xbe61eec9	-0.22063746
84	0x3df316e2	0.11869599
85	0x3dc49ae2	0.09599854
86	0xbe6a3656	-0.2287229
87	0x3db0c2ff	0.086309426
88	0xbde3ea40	-0.11128664
89	0xbe58f50c	-0.21187228
90	0x3d33e84a	0.0439227
91	0x3d8e2211	0.069400914
92	0x3d640987	0.05567315
93	0xbe6b0135	-0.22949679
94	0x3d17bd9e	0.037046067
95	0x3de26022	0.11053492
96	0xbef4d5bf	-0.47819325
97	0x3d8ab308	0.06772429
98	0x3efbb8a7	0.49164316
99	0x3e1a8ae2	0.15092042
100	0xbe26a3da	-0.16273442
101	0x3e1f310a	0.1554605
102	0x3cdbc1f2	0.026825879
103	0x3e074922	0.13211492
104	0x3e1e28d8	0.15445268
105	0x3eab59dc	0.33466995
106	0x3cd5564d	0.026042128
107	0xbd838837	-0.06422465
108	0x3bd29e1b	0.006427539
109	0xbe39c560	-0.18141699
110	0x3e425823	0.18978934
111	0xbe0edefe	-0.13952252
112	0x3e1212ad	0.14264937
113	0x3e01bcdb	0.12669699
114	0x3e3220e8	0.17395365
115	0x3dc6c8e0	0.097062826
116	0xbde93d22	-0.11388613
117	0xbc3c911f	-0.011509209
118	0x3d57998e	0.052636676
119	0xbb6832df	-0.0035430712
120	0x3e61b4b1	0.22041585
121	0xbe947dc4	-0.29002202
122	0x3ce24224	0.027619429
123	0xbe46e79e	-0.19424292
124	0x3eab9e27	0.33519098
125	0x3dbdf4d9	0.092752166
126	0xbd9d11ff	-0.07669448
127	0xbe4c0ca6	-0.199267
128	0x3e3bcc83	0.18339734
129	0xbd7627c7	-0.06009653
130	0xbeff3372	-0.49843937
131	0xbe409648	-0.18807328
132	0x3e5684e6	0.20949134
133	0xbe6297ed	-0.22128268
134	0xbe27f5d8	-0.16402376
135	0x3d9c2c4c	0.076256365
136	0xbde6f973	-0.112780474
137	0x3c979915	0.018505612
138	0x3e0502ac	0.129893
139	0xbdddef47	-0.10836654
140	0x3dbe91af	0.09305131
141	0xbe04d860	-0.12973166
142	0x3df3e7a0	0.11909413
143	0x3d2b59c6	0.04183366
144	0x3df17732	0.11790313
145	0x3f293a64	0.6610472
146	0x3d2e7dbe	0.042600386
147	0xbd68bdc5	-0.056821603
148	0xbdf2eca3	-0.11861541
149	0x3ee6dac4	0.4508878
150	0xbe214c3e	-0.1575174
151	0x3e973575	0.29532972
152	0xbe837e61	-0.25682357
153	0x3efb5692	0.49089485
154	0xbe9cf3e5	-0.30654827
155	0x3d8f8b5d	0.07009003
156	0xbdd8da31	-0.10588492
157	0x3e3b7e5d	0.18309923
158	0xbdbe6981	-0.09297467
159	0x3d446718	0.04794988
160	0x3db1c00f	0.086792104
161	0xbdb39533	-0.08768692
162	0x3e5e5291	0.21711184
163	0xbd4dc323	-0.050234925
164	0x3e37abde	0.17936656
165	0x3de17d35	0.110102095
166	0x3d8bf0c0	0.06833029
167	0x3df1f8c6	0.11815028
168	0x3f34730f	0.70488065
169	0x3faab91f	1.3337744
170	0xbf0c43df	-0.54791063
171	0xbf1ee625	-0.6206992
172	0x3ece5ae6	0.40303725
173	0x3d8d1bfb	0.068901025
174	0x3e6e560f	0.23275016
175	0xbd05bab4	-0.032648757
176	0x3e61b6eb	0.22042434
177	0x3eb1a03e	0.34692568
178	0xbb28fde5	-0.0025786099
179	0x3d0f3c9e	0.03496992
180	0x3caf8c00	0.021429062
181	0xbddc61c0	-0.10760832
182	0xbc76ca4c	-0.01506288
183	0xbe358158	-0.17725122
184	0xbdcadb64	-0.09905127
185	0x3e16e510	0.14735818
186	0xbdad9157	-0.08474987
187	0x3e70c455	0.23512395
188	0x3e5ff465	0.21870573
189	0x3d58750f	0.05284601
190	0xbdae0272	-0.0849656
191	0xbd934edd	-0.07192776
192	0xbed8a7ef	-0.42315623
193	0xbec51d56	-0.38498944
194	0x3d93d4d2	0.07218327
195	0xbe9507c2	-0.2910748
196	0x3e172d79	0.1476344
197	0x3ca44fc0	0.020057559
198	0x3dd7f390	0.10544503
199	0x3e1bfb91	0.15232684
200	0xbe866204	-0.26246655
201	0x3db5b946	0.08873229
202	0xbcd822bc	-0.02638375
203	0xbf2040e4	-0.62599015
204	0xbdecac00	-0.11556244
205	0xbe736c63	-0.23771815
206	0x3e5481e1	0.2075267
207	0x3d053bad	0.032527614
208	0xbc46c835	-0.012132694
209	0x3e13213c	0.14368147
210	0xbe25e2da	-0.16199818
211	0x3dcbdd28	0.099542916
212	0xbdb72589	-0.08942706
213	0x3e248769	0.1606728
214	0xbb13ee02	-0.0022572284
215	0x3ddc68ba	0.107621625
216	0x3e6b9a03	0.2300797
217	0x3ee2e47c	0.44314945
218	0xbeeb9eb2	-0.46019512
219	0x3ea5ad78	0.3235891
220	0xbcd9d6ff	-0.026591776
221	0xbbebca42	-0.007195742
222	0xbd99fbc2	-0.07518722
223	0x3e37638e	0.17909071
224	0x3ec4426f	0.38331935
225	0x3ed5f25d	0.4178647
226	0x3d79ea7b	0.061014634
227	0xbdc54780	-0.09632778
228	0xb9ce815b	-0.0003938776
229	0x3d1988ed	0.0374841
230	0x3c1854ba	0.009297544
231	0xbcaf4500	-0.021395206
232	0x3dc033e5	0.09384898
233	0x3eb91715	0.36150423
234	0x3e01522d	0.12629004
235	0x3d9efb28	0.07762748
236	0x3e6853c3	0.22688203
237	0x3e0fc1da	0.14038792
238	0x3ddbc8af	0.10731637
239	0xbe33a2eb	-0.17542617
240	0x3e9d81d5	0.30763116
241	0x3f98f0d2	1.1948493
242	0xbe098b65	-0.13432081
243	0x3ddb3a7f	0.107045166
244	0xbc570ab2	-0.013125109
245	0x3e739dd2	0.23790672
246	0xbedcb1c0	-0.43104362
247	0xbddf2cd2	-0.10897221
248	0xbdb53422	-0.08847834
249	0x3e0a3fe5	0.13500936
250	0xbbb130d7	-0.0054074335
251	0x3c3a3492	0.011365073
252	0x3c77bb78	0.01512038
253	0xbda910e5	-0.082551755
254	0x3e9ba05a	0.30395776
255	0x3e2a5419	0.16633643

bias f4 [128]
0	0x3e12e94a	0.14346805
1	0x3df16e48	0.117886126
2	0x3e1bbfd5	0.15209897
3	0x3e08566d	0.13314219
4	0x3b2b3bdd	0.002612821
5	0x3d7e8534	0.06213875
6	0xbdae4521	-0.08509279
7	0x3db0036b	0.08594402
8	0x3e2d0830	0.16897655
9	0xbe057051	-0.13031127
10	0x3e0cd4fc	0.13753122
11	0xbde1771c	-0.110090464
12	0x3dd328fc	0.103105515
13	0x3eaf0d7e	0.3418998
14	0xbce33c80	-0.02773881
15	0x3e37ac30	0.17936778
16	0x3e2c08fe	0.16800305
17	0x3e1c77a7	0.15280019
18	0xbeba2651	-0.36357358
19	0x3e15322e	0.14569923
20	0xbab97541	-0.0014149324
21	0x3dfbd1a0	0.12295842
22	0xb9e5c8bf	-0.0004382785
23	0x3dd251bd	0.102694966
24	0x3e795562	0.24348977
25	0x3db940ad	0.09045539
26	0xbd7c0da9	-0.061536465
27	0xbdf6bbff	-0.12047576
28	0x3d039968	0.03212872
29	0x3e98ded0	0.29857492
30	0x3de208bf	0.110368244
31	0xbbc60280	-0.0060427785
32	0xbd3e5515	-0.04646786
33	0xbdf27c94	-0.11840168
34	0xbcb526ae	-0.02211317
35	0x3cb59141	0.022163989
36	0x3e36c877	0.17849909
37	0x3e5b4b31	0.21415402
38	0x3d495217	0.049150553
39	0x3bd5e1f6	0.006527181
40	0xbe5967f1	-0.21231057
41	0x3e9a066a	0.3008302
42	0xbe02e394	-0.12782127
43	0x3d8dbcd3	0.06920781
44	0xbcea561e	-0.028605517
45	0x3e4fd83e	0.20297334
46	0x3dfa0307	0.12207609
47	0x3e01b513	0.1266673
48	0xbdd01182	-0.10159589
49	0xbb807520	-0.0039202124
50	0x3e3750f2	0.17901972
51	0xbdfb4a97	-0.12270086
52	0x3e4a2750	0.19741559
53	0x3d3ed980	0.046594143
54	0x3e68ed53	0.22746782
55	0x3c66cf7f	0.014087557
56	0x3de12a63	0.10994413
57	0xbdc4991d	-0.095995165
58	0xbd07a21b	-0.03311358
59	0x3db2f8d8	0.087388694
60	0x3d24372e	0.040091686
61	0x3e138501	0.14406206
62	0xbe02fefd	-0.12792583
63	0x3e0130ea	0.12616315
64	0x3df80a4e	0.121113405
65	0x3e6f1622	0.23348287
66	0x3e4637a2	0.1935716
67	0xbe17c493	-0.14821081
68	0x3e268f4f	0.16265605
69	0xbe0a536a	-0.13508382
70	0x3dafc0c9	0.08581693
71	0x3e76a8c6	0.2408782
72	0x3d26fcbd	0.040768374
73	0x3e1196df	0.14217709
74	0x3d726bc1	0.059184793
75	0x3e185167	0.14874803
76	0x3ce39c18	0.027784392
77	0xbd309f52	-0.04312069
78	0x3e1aacc3	0.15104966
79	0x3a9679ff	0.001148045
80	0xbe0aa4d0	-0.13539433
81	0x3c5d6a14	0.0135140605
82	0xbd984635	-0.07435266
83	0xbe02812f	-0.12744592
84	0xbad994ea	-0.0016600166
85	0x3e76a17d	0.2408504
86	0x3c17f047	0.009273595
87	0x3de894c5	0.113565005
88	0xbddd71a3	-0.1081269
89	0xbdab5242	-0.08365299
90	0x3d85b397	0.06528395
91	0x3e0b49c2	0.13602355
92	0xbd159d8f	-0.036527213
93	0x3e406670	0.18789077
94	0xbd2b6f84	-0.041854396
95	0x3e668410	0.22511315
96	0xbe813486	-0.25235385
97	0x3da6a6df	0.08137297
98	0xbd933d66	-0.07189445
99	0xbd216809	-0.039405856
100	0x3d7221a8	0.05911413
101	0x3e42700a	0.18988052
102	0x3bd3b501	0.0064607863
103	0xbd774904	-0.060372368
104	0xbda223ae	-0.079169616
105	0xbdd5f1bc	-0.10446498
106	0xbd81f3d5	-0.063453354
107	0x3e2f17ef	0.17098974
108	0xbd1cbd26	-0.038266324
109	0xbe4a22d1	-0.19739844
110	0xbe6a0314	-0.22852737
111	0xbe35d1fd	-0.17755885
112	0x3e1b3e4f	0.15160488
113	0x3e6d4242	0.23169807
114	0x3e948bc4	0.29012883
115	0xbe1ffd87	-0.15624057
116	0xbe245601	-0.16048433
117	0xbe006228	-0.12537444
118	0x3e5689fa	0.20951071
119	0x3dade540	0.084909916
120	0x3d8a6da4	0.067591935
121	0x3e3cdf62	0.18444589
122	0x3e0e3fb1	0.13891484
123	0x3de20cb1	0.11037577
124	0x3e842e9c	0.2581681
125	0x3e005261	0.12531425
126	0x3cdf5e40	0.027266622
127	0xbde3810e	-0.111085996

weight f4 [64, 128]
0	0xbd3557cd	-0.044273186
1	0x3e018176	0.12647042
2	0xbe2da7f0	-0.16958594
3	0xbda7c1bc	-0.08191249
4	0xbd3a6089	-0.04550222
5	0x3e446ecc	0.1918289
6	0x3ea0ac91	0.31381658
7	0x3e2f8f82	0.17144588
8	0x3c123278	0.0089231655
9	0x3e17e602	0.14833835
10	0x3d040ccf	0.032238778
11	0xbe386fef	-0.1801145
12	0xbcae138a	-0.021249551
13	0xbdd0e7f5	-0.10200492
14	0xbd8d87ac	-0.06910643
15	0xbe50c88d	-0.20389004
16	0x3d69a122	0.057038434
17	0xbe4ccd49	-0.20000185
18	0x3cf62907	0.03004886
19	0x3e58b39e	0.21162269
20	0xbe5ca9ab	-0.21549098
21	0x3e1f608e	0.15564176
22	0xbd85a604	-0.065258056
23	0x3d496457	0.049167957
24	0x3e662e9d	0.22478719
25	0xbe9e8cc7	-0.3096678
26	0x3c5de5a1	0.013543517
27	0x3e0799a5	0.13242204
28	0x3e169808	0.14706433
29	0x3e18bb52	0.14915207
30	0xbdca29e1	-0.09871269
31	0x3c5f7998	0.01363983
32	0x3d05297b	0.032510262
33	0xb8d32883	-0.0001006881
34	0x3d63b62d	0.05559366
35	0xbe2a43d1	-0.16627432
36	0x3d1a6639	0.037695143
37	0xbe04c512	-0.12965801
38	0xbe13a64c	-0.14418906
39	0x3e124b42	0.14286521
40	0xbe035dca	-0.12828746
41	0xbd432c5a	-0.04764972
42	0x3e65baa3	0.22434478
43	0xbe72acdf	-0.23698758
44	0x3c84c126	0.016205382
45	0xbdbc21be	-0.09186123
46	0x3d6a7de9	0.057248984
47	0x3dce4467	0.100716405
48	0xbe2a21ad	-0.16614409
49	0x3e758fc3	0.23980622
50	0xbdcb38ff	-0.099229805
51	0x3e5e18ba	0.2168912
52	0x3eb7c163	0.3588973
53	0xbe0081e1	-0.12549545
54	0xbe4931d9	-0.19647922
55	0x3daae4d7	0.08344429
56	0xbd289369	-0.041156206
57	0x3ddc1fc2	0.10748245
58	0x3eac72e9	0.3368142
59	0x3bbf77c3	0.005843134
60	0x3c0b2f3a	0.008495146
61	0xbe81dd0a	-0.25363952
62	0x3d43a38c	0.047763392
63	0xbb5bf6c2	-0.0033563827
64	0xbdb205cf	-0.08692514
65	0xba74ca20	-0.00093379803
66	0xbbc4258f	-0.0059859226
67	0xba92271c	-0.0011150572
68	0xbd86e655	-0.06586901
69	0x3d8eb6b8	0.069684446
70	0x3e40649b	0.18788378
71	0x3e07590f	0.13217567
72	0xbeba06e2	-0.36333376
73	0x3dd824e4	0.10553911
74	0xbe8bd04e	-0.2730736
75	0x3dabc7d6	0.08387725
76	0xbe28dbc5	-0.16490085
77	0xbdc4955f	-0.09598803
78	0xbea55308	-0.3228991
79	0xbecb408e	-0.3969769
80	0xb8f8f566	-0.000118712705
81	0x3e3bbff1	0.18334939
82	0x3e3df2dc	0.18549675
83	0xbe3b90ea	-0.18316999
84	0x3df96c50	0.12178862
85	0x3ddfbeb6	0.10925047
86	0x3e55856d	0.20851679
87	0x3d40f04b	0.04710416
88	0xbd7de24d	-0.061983395
89	0x3e60e697	0.21962963
90	0x3e6d8d3e	0.23198411
91	0x3d643413	0.055713724
92	0x3e031d59	0.12804164
93	0xbec22347	-0.3791754
94	0xbcecc3de	-0.02890199
95	0x3ec1f201	0.37879947
96	0x3dd86b42	0.10567333
97	0xbe26cdfe	-0.16289517
98	0x3e573a57	0.21018349
99	0x3df948d8	0.12172097
100	0x3e801593	0.2501646
101	0xbefb26ff	-0.4905319
102	0x3dff1ca0	0.12456632
103	0xbd069be6	-0.03286352
104	0xbe8a71d8	-0.2703998
105	0x3e2c501c	0.16827434
106	0x3e0f93a6	0.14021167
107	0xbe5bb535	-0.21455844
108	0x3e8285d5	0.2549273
109	0xbdc90017	-0.0981447
110	0x3d270bf0	0.04078287
111	0x3e381b7b	0.17979233
112	0x3e6eeb04	0.23331839
113	0x3defc1cf	0.11706888
114	0xbe9e4eca	-0.30919486
115	0x3d8c6014	0.06854263
116	0x3de2fb2a	0.11083062
117	0x3c884e01	0.016638758
118	0xbd10d9a3	-0.035363805
119	0xbd1e6cae	-0.038677864
120	0x3e210f05	0.15728386
121	0x3e3fd90b	0.18735139
122	0xbc253b5e	-0.010084955
123	0xbd6e8090	-0.058228076
124	0x3dde806d	0.10864339
125	0xbde4ed81	-0.11178113
126	0x3dd7b4dd	0.10532544
127	0x3e8076fe	0.25090784
128	0xbe007848	-0.12545884
129	0x3dc02079	0.09381194
130	0x3d762180	0.06009054
131	0x3e5b0b4f	0.21391033
132	0xbc07f268	-0.00829754
133	0x3d43672f	0.047705825
134	0x3e4d821a	0.20069161
135	0xbdcc52a8	-0.09976703
136	0x3d148aac	0.03626506
137	0x3e54dfc1	0.2078848
138	0x3e174816	0.14773592
139	0x3e07824c	0.13233298
140	0x3e29450f	0.1653025
141	0xbcb2d498	-0.021829888
142	0x3cad0623	0.02112109
143	0x3b2b2b04	0.0026118169
144	0x3e4247fb	0.18972771
145	0xbec6f1d6	-0.3885638
146	0xbdbef928	-0.093248665
147	0x3e2d5788	0.16927922
148	0xbd7055ac	-0.058675453
149	0x3e7040e4	0.23462254
150	0x3da491a0	0.08035588
151	0x3d77aabc	0.06046556
152	0x3b796aae	0.003805797
153	0x3db01936	0.085985586
154	0xbee7fdd1	-0.45310834
155	0x3d1faee5	0.03898515
156	0x3e482d3e	0.19548509
157	0x3ea9473a	0.33062154
158	0xbcb55059	-0.02213304
159	0xbeabbac6	-0.33540934
160	0x3e82a3e1	0.25515655
161	0x3eac6a01	0.33674625
162	0x3b22f9fb	0.0024868238
163	0x3db33132	0.08749618
164	0x3d34bd38	0.044125766
165	0x3daa53fa	0.083167985
166	0xbb5deaa5	-0.0033861783
167	0x3dfc1fcd	0.12310753
168	0xbe6a99cd	-0.22910233
169	0xbce37c00	-0.027769089
170	0x3e5c3a7b	0.21506684
171	0x3db8af1e	0.09017776
172	0xbc27d7e3	-0.0102443425
173	0x3d24479b	0.04010735
174	0x3e8ed35d	0.27895632
175	0x3dff1808	0.124557555
176	0xbae9f780	-0.001785025
177	0x3e305251	0.17218901
178	0xbd8988ac	-0.06715521
179	0x3daeaf42	0.085295215
180	0xbdad0766	-0.08448677
181	0xbe261c85	-0.16221817
182	0x3e0c5e2d	0.137078
183	0xbc28b3c7	-0.0102967685
184	0xbdc3f019	-0.09567279
185	0x3d76b75d	0.060233463
186	0x3da22623	0.0791743
187	0xbcc68983	-0.024235493
188	0x3d48e83d	0.049049605
189	0x3e2b5246	0.16730604
190	0x3c79adf4	0.015239228
191	0xbdee6331	-0.11640013
192	0xbdfbd91d	-0.122972704
193	0x3ad83222	0.0016494433
194	0x3e0e6450	0.13905454
195	0x3cce471f	0.025180398
196	0x3da06f8e	0.07833777
197	0x3e13a934	0.14420015
198	0x3ebd7bc7	0.37008497
199	0x3eb4613d	0.35230437
200	0x3e1ffb05	0.156231
201	0x39e75651	0.00044124064
202	0x3c5584fe	0.013032196
203	0x3d068ec2	0.03285099
204	0xbe031892	-0.12802342
205	0x3dedd343	0.116125606
206	0x3da1b48d	0.078957655
207	0x3d89d449	0.06729943
208	0x3ccadf0f	0.024764566
209	0x3dd113fc	0.1020889
210	0x3d5f36e3	0.054495703
211	0x3e12fe8a	0.14354911
212	0x3dc0abf2	0.09407796
213	0x3dcf9839	0.10136456
214	0x3de1dcae	0.110284194
215	0xbe278479	-0.16359128
216	0x3dd20108	0.10254103
217	0xbbe1af49	-0.0068873507
218	0x3d60a463	0.05484427
219	0x3ea6e267	0.32594606
220	0x3e0a60e9	0.13513531
221	0x3ce55367	0.02799387
222	0xbcab0695	-0.020877162
223	0x3d8f461f	0.069957964
224	0x3d1e665c	0.038671836
225	0x3e0722f5	0.13196929
226	0x3e90c80a	0.28277618
227	0xbe661ba2	-0.22471479
228	0xbe143dcf	-0.14476703
229	0x3e1d1b4d	0.15342446
230	0xb6b862ff	-5.495152e-06
231	0x3ed1bce7	0.40964434
232	0x3ddaa470	0.10675895
233	0x3e8e1da0	0.27756977
234	0x3dc7f56d	0.09763608
235	0xbe49f16a	-0.19720998
236	0xbd211b59	-0.03933272
237	0x3d812156	0.063051865
238	0x3d6e84bf	0.058232065
239	0x3dc7b8fd	0.097520806
240	0xbcf8bf2a	-0.030364592
241	0x3e1ac351	0.1511357
242	0xbd23bda7	-0.03997579
243	0xbc811e47	-0.015761508
244	0x3d2798e2	0.040917285
245	0x3dade0ef	0.08490168
246	0xbd070d6f	-0.032971796
247	0xbdd5f7e1	-0.1044767
248	0x3d2e52cf	0.04255944
249	0x3e648045	0.22314556
250	0xbdd8c5c1	-0.105845936
251	0xbe83eb89	-0.25765637
252	0x3e6f1cb0	0.23350787
253	0x3dfcb72d	0.123396255
254	0xbec82101	-0.3908768
255	0x3e765123	0.24054389

bias f4 [64]
0	0x3e13561a	0.14388314
1	0x3dcd1b2b	0.100149475
2	0xbd605e08	-0.054777175
3	0xbd2f8513	-0.04285152
4	0x3e122c02	0.142746
5	0x3d245d47	0.04012802
6	0x3cc45742	0.023967389
7	0xbd1f5765	-0.038901705
8	0x3dfb15b8	0.12260002
9	0x3c5d89fd	0.0135216685
10	0xbd0429d2	-0.032266445
11	0x3d0eb43a	0.034839846
12	0xbcee8eac	-0.029120766
13	0xbd93e297	-0.07220953
14	0x3e048bab	0.12943904
15	0x3ca9d71e	0.020732459
16	0xbe13220c	-0.14368457
17	0xbb7dad2f	-0.0038707962
18	0x3df12e58	0.117764175
19	0x3cb97f77	0.022643788
20	0x3de30951	0.11085761
21	0x3da1640c	0.078804106
22	0x3e158b9f	0.14604042
23	0xbd531e85	-0.051542778
24	0xbd63d4b2	-0.055622764
25	0x3bcdd710	0.006281741
26	0x3d29c316	0.041445814
27	0x3d5f2d7f	0.054486748
28	0x3da4c5b6	0.08045523
29	0xbd0e5b0e	-0.034754805
30	0x3b10c1f2	0.0022088257
31	0x3e06c57d	0.13161273
32	0x3d64cef2	0.05586142
33	0x3dbb2c86	0.091393515
34	0x3d3cc73f	0.046088453
35	0xbb013f3c	-0.0019721529
36	0x3c41198a	0.011785874
37	0x3d3fc6e8	0.04682055
38	0x3d1c98ba	0.03823159
39	0x3d1e99ca	0.038720883
40	0x3dfabcb2	0.12243022
41	0x3dcd9293	0.100377224
42	0x3d1a9570	0.03774017
43	0x3ccd48c1	0.025059106
44	0x3e2f46a2	0.17116788
45	0x3de38021	0.11108423
46	0x3d6ea6a4	0.05826439
47	0x3da5840a	0.08081825
48	0x3db93cf9	0.09044833
49	0x3d80b079	0.062836595
50	0x3c98ea4a	0.018666405
51	0x3d0e7212	0.034776755
52	0x3da98690	0.08277619
53	0x3e4e4f46	0.20147428
54	0xbd7c5932	-0.0616085
55	0xbbaf8a75	-0.0053570815
56	0x3cb5f5d2	0.022211943
57	0x3d30e8b6	0.04319068
58	0x3d95d42a	0.07315858
59	0xbc0897b9	-0.008336955
60	0x3dda80b9	0.10669083
61	0xbe070846	-0.1318675
62	0x3d9270dd	0.07150433
63	0x3ddd113c	0.10794303

weight f4 [32, 64]
0	0xbe9d13e2	-0.30679232
1	0xbdf8dcd1	-0.121514924
2	0xbe84c643	-0.25932512
3	0x3e27f370	0.16401458
4	0xbed2e154	-0.41187537
5	0x3c1885cd	0.009309244
6	0xbed45240	-0.41469002
7	0xbe9ead15	-0.30991426
8	0x3c91e0e7	0.017807437
9	0x3f05364b	0.5203597
10	0xbbfac55b	-0.007652921
11	0xbe972b1c	-0.29525077
12	0x3e5f49ea	0.2180554
13	0xbdca2631	-0.09870566
14	0xbe3981b9	-0.18115892
15	0xbf11e76a	-0.56993735
16	0xbe4e619d	-0.20154424
17	0xbf07bd37	-0.53023094
18	0x3e51e69f	0.20498131
19	0x3e135d66	0.14391097
20	0xbe265a4a	-0.1624538
21	0x3deef6f7	0.116681986
22	0xbec1192b	-0.37714514
23	0x3dc46a6e	0.09590612
24	0x3e3714e3	0.17879061
25	0x3e09ce09	0.13457502
26	0x3d1fbf21	0.039000634
27	0xbdaea3d9	-0.08527345
28	0x3eaaa5ab	0.3332952
29	0x3ec8f8c8	0.39252305
30	0x3eac6588	0.33671212
31	0xbe712583	-0.23549466
32	0xbf0abaea	-0.5419146
33	0xbe0be3ff	-0.13661192
34	0x3c38f14f	0.011288001
35	0xbe0288d7	-0.12747513
36	0xbcb5ecb4	-0.022207595
37	0x3ebbbd65	0.36667934
38	0x3ce97b71	0.028501244
39	0xbe1825de	-0.14858195
40	0x3e779771	0.24178864
41	0x3df1ae3b	0.1180081
42	0x3e04eab7	0.12980162
43	0x3dd4155f	0.10355639
44	0xbed4eec3	-0.4158841
45	0x3e3bde03	0.1834641
46	0x3ecbc148	0.397959
47	0xbbc1fc3e	-0.005919962
48	0x3eea0d2d	0.45713177
49	0x3df7b40d	0.12094889
50	0x3d4734a0	0.04863417
51	0x3dfb962b	0.12284502
52	0x3eaa2a39	0.33235338
53	0xbe82da38	-0.25557113
54	0x3d595d1f	0.053067323
55	0x3e10c8d3	0.14139108
56	0x3e882bd7	0.26595947
57	0x3d9bd5d1	0.076091416
58	0xbed2bab3	-0.41158065
59	0x3db46fd4	0.08810392
60	0x3da0b5f3	0.07847204
61	0x3eb5f579	0.35538843
62	0x3e855543	0.26041612
63	0xbda44062	-0.080200925
64	0x3f19ad92	0.6003047
65	0xbd018c90	-0.03162819
66	0x3dd387ac	0.10328612
67	0xbd0ef299	-0.034899328
68	0x3e94080d	0.28912392
69	0x3be469b2	0.0069706077
70	0x3e796b89	0.24357428
71	0x3e42b1a1	0.19013073
72	0xbb46775f	-0.0030283553
73	0xbf2e78c4	-0.68153024
74	0x3e250b92	0.16117695
75	0x3e7bdb71	0.24595429
76	0xbead7256	-0.33876294
77	0x3de38e9e	0.111111864
78	0x3db14637	0.086559705
79	0x3f312e08	0.69210863
80	0xbc80b8ae	-0.015713062
81	0x3d8f2540	0.06989527
82	0xbd7849d4	-0.060617283
83	0x3e6915d3	0.22762232
84	0xbb052fa6	-0.002032259
85	0x3e54c811	0.20779444
86	0x3f266745	0.65001327
87	0x3d746b1b	0.059672456
88	0xbdce69af	-0.10078751
89	0x3e8e5d36	0.2780549
90	0x3b768f7e	0.003762215
91	0x3e140bc3	0.14457612
92	0xbf0f80f6	-0.56056154
93	0xbe6538b7	-0.22384916
94	0xbea0ffbd	-0.31445113
95	0x3e6ee7c1	0.23330595
96	0x3d3a1de5	0.045438666
97	0x3d860a1f	0.06544899
98	0x3da36eb7	0.079801016
99	0x3ed29ff3	0.41137657
100	0xbbf1f874	-0.0073843542
101	0xbeb2fe68	-0.34959722
102	0xbdee0879	-0.1162271
103	0x3e8577b6	0.26067895
104	0xbc9996c9	-0.018748658
105	0xbd442380	-0.047885418
106	0x3c99fc8c	0.018797182
107	0x3d95f5de	0.07322286
108	0x3e7d9bba	0.24766436
109	0xbf012f1e	-0.5046252
110	0xbe29751e	-0.16548583
111	0xbdda17f8	-0.10649103
112	0xbf0a9655	-0.5413564
113	0x3e23fa24	0.1601339
114	0xbdd38dae	-0.10329758
115	0x3df13b7b	0.11778923
116	0xbdf5e7f4	-0.12007132
117	0x3eba4383	0.36379632
118	0xbe10cc4e	-0.14140436
119	0x3d1e53c9	0.038654123
120	0xbf191ac2	-0.59806454
121	0xbe47d899	-0.19516219
122	0x3ed56f49	0.41686466
123	0xbe19cc6e	-0.1501939
124	0xbc5d23ba	-0.013497287
125	0x3c81c85a	0.015842605
126	0x3d848827	0.064712815
127	0x3da85ee3	0.08221223
128	0x3e7380f4	0.2377966
129	0x3e14f859	0.14547862
130	0xbde4f3cf	-0.11179315
131	0xbf085146	-0.53249013
132	0x3e1f4bc0	0.1555624
133	0x3def36c6	0.11680369
134	0xbe78cfe5	-0.24298055
135	0x3e8081b7	0.25098965
136	0x3e175699	0.14779128
137	0x3dda6ec8	0.10665661
138	0x3e65e696	0.22451243
139	0x3e972656	0.29521435
140	0x3d5c62de	0.053805225
141	0x3de261e4	0.110538274
142	0x3e2e8a7a	0.17045012
143	0x3e1e9108	0.15485013
144	0x3d455e2c	0.048185512
145	0x3eace019	0.33764723
146	0x3eb4186b	0.3517488
147	0xbd0e7dfe	-0.034788124
148	0x3e86ad6d	0.26304188
149	0x3e18daa6	0.14927158
150	0xbe179e90	-0.1480658
151	0xbd74af82	-0.05973769
152	0x3e0a6415	0.13514741
153	0xbbf61824	-0.007510202
154	0x3ea968eb	0.3308786
155	0xbe504bb7	-0.20341383
156	0x3e50c7c4	0.20388705
157	0x3e03b8d2	0.12863472
158	0xbc7254fd	-0.014790771
159	0x3e38ed12	0.18059185
160	0xbefc7fe1	-0.49316314
161	0x3e4a299a	0.19742432
162	0x3e00090f	0.12503456
163	0xbebbf605	-0.36711136
164	0x3e25213e	0.16125962
165	0x3e83e0a4	0.25757325
166	0x3d8f83f0	0.07007587
167	0xbd43c637	-0.047796454
168	0x3ca8f447	0.020624293
169	0xbde405f0	-0.11133945
170	0x3e6f6d0a	0.23381439
171	0xbddffec2	-0.10937263
172	0xbec0114e	-0.37513202
173	0xbee3079b	-0.4434174
174	0x3ddce7e2	0.10786416
175	0x3d30744b	0.043079656
176	0x3e48fad2	0.1962693
177	0xbe1b968a	-0.15194145
178	0x3dc3daca	0.09563215
179	0x3e32c3fa	0.17457572
180	0xbe6d69ad	-0.23184843
181	0xbefeab8c	-0.49740255
182	0x3e8cb912	0.27484947
183	0xbd8329d2	-0.06404461
184	0xbdf0b934	-0.11754075
185	0xbddf3309	-0.10898406
186	0x3e41ba30	0.18918681
187	0xbeb62149	-0.3557227
188	0x3d4613b1	0.048358623
189	0x3e2f9660	0.17147207
190	0x3e26d3cb	0.1629173
191	0x3e968455	0.29397836
192	0x3e8169e1	0.25276092
193	0xbe87d972	-0.26533085
194	0xbddb1ac3	-0.10698464
195	0x3f1c34ee	0.61018264
196	0x3dedf790	0.116194844
197	0x3e4283d5	0.18995602
198	0x3ec6e857	0.38849136
199	0xbe1da198	-0.15393674
200	0x3dbe3a2f	0.092884414
201	0xbab21de6	-0.0013589233
202	0xbf08994d	-0.5335892
203	0x3ecf9273	0.4054142
204	0x3c34595f	0.011007636
205	0x3dafeb63	0.08589818
206	0x3e7ad328	0.24494612
207	0xbd9e0393	-0.077155255
208	0x3ea350ba	0.31897527
209	0x3df0bff6	0.11755364
210	0x3e152ca3	0.14567809
211	0x3ed5c9c1	0.4175549
212	0x3c09d9ba	0.008413726
213	0xbf0e8ca6	-0.5568336
214	0xbb9120f8	-0.004428979
215	0x3eaccd70	0.33750486
216	0xbd94716d	-0.07248197
217	0x3dfe5c12	0.12419905
218	0xbe25af87	-0.1618024
219	0x3e1a5518	0.15071523
220	0x3e47704d	0.19476433
221	0xbea48031	-0.32129052
222	0x3efe7ef0	0.4970622
223	0xbe25b0b9	-0.16180696
224	0x3e964e30	0.29356527
225	0x3d418615	0.04724701
226	0x3d9f2bed	0.0777205
227	0x3e2cfb54	0.16892749
228	0xbdb36b0a	-0.087606505
229	0x3cec4f8e	0.028846528
230	0x3d08ea81	0.033426765
231	0xbd18c318	-0.03729543
232	0x3e0cb4cd	0.13740845
233	0x3e570eaa	0.21001688
234	0xbed5002e	-0.416017
235	0x3e292a41	0.16520025
236	0x3e5dc190	0.2165587
237	0x3c2884b5	0.010285546
238	0xbe4577f1	-0.19284035
239	0x3eb5a4ea	0.35477382
240	0xbe3ebcc7	-0.186267
241	0x3e56693f	0.20938586
242	0x3e2aa817	0.16665684
243	0xbeb2f6b6	-0.3495385
244	0x3cb4b052	0.022056732
245	0x3d70615b	0.058686595
246	0x3e7497ca	0.23886028
247	0x3ee75e08	0.45188928
248	0x3e1061e4	0.14099842
249	0x3c936f6d	0.017997468
250	0xbee326f1	-0.44365647
251	0x3e8c377f	0.2738609
252	0x3edc16c9	0.42986134
253	0x3d336c9d	0.043804754
254	0x3e5acfc1	0.21368314
255	0xbdbd60bf	-0.092469685

bias f4 [32]
0	0x3d19da79	0.037561867
1	0xbd5c5baf	-0.053798374
2	0x3d64ed3d	0.05589031
3	0x3e31b3d6	0.17353758
4	0x3dcf7ae8	0.101308644
5	0x3c84bcc8	0.0162033
6	0xbd2b05f0	-0.04175371
7	0x3d8b37a3	0.06797721
8	0xbb31e2ad	-0.0027143166
9	0x3e02c343	0.12769799
10	0x3e25a78b	0.16177194
11	0xbc83ddf9	-0.016097056
12	0xbd121ebf	-0.035673853
13	0x3db86545	0.09003691
14	0x3d1fe7b7	0.03903934
15	0xbc3286a7	-0.010896361
16	0x3c062baf	0.008189126
17	0x3d533cff	0.051571842
18	0xbe03f25e	-0.12885424
19	0xbda8d86b	-0.082444035
20	0x3de34270	0.11096656
21	0x3d128f98	0.035781473
22	0xbc4076ba	-0.011747057
23	0x3e1a6d05	0.1508065
24	0x3d3ac49e	0.045597665
25	0x3dfe4dff	0.1241722
26	0x3d60e5d7	0.054906692
27	0x3d256f82	0.040389545
28	0x3e890bb9	0.26766756
29	0x3b4dd706	0.0031408682
30	0xbe13d6d7	-0.14437424
31	0x3dc42eb3	0.0957922

weight f4 [4, 32]
0	0x3e983b71	0.2973285
1	0xbf3eedc5	-0.7458156
2	0x3f38f1a4	0.72243714
3	0xbed14f3b	-0.4088076
4	0xbe860940	-0.26178932
5	0x3d446fb2	0.047958083
6	0xbc9bd05e	-0.019020256
7	0xbf8888b2	-1.0666716
8	0xbe6db42f	-0.23213266
9	0xbe179cbc	-0.14805883
10	0xbe3054aa	-0.17219797
11	0x3f943b4c	1.1580596
12	0x3e84358c	0.25822103
13	0xbea3ece5	-0.32016674
14	0xbeed949b	-0.4640244
15	0x3d064dd7	0.032789078
16	0xbab9aa31	-0.0014165101
17	0xbeee5a00	-0.4655304
18	0x3ed43599	0.41447142
19	0xbe28c350	-0.16480756
20	0xbedc480d	-0.4302372
21	0x3e981d79	0.29709986
22	0x3f0f4244	0.5596049
23	0x3f2e3c89	0.6806112
24	0x3dadd205	0.08487324
25	0x3eca301c	0.3948983
26	0xbefadc57	-0.4899623
27	0x3f045e4c	0.51706386
28	0x3f498208	0.78714037
29	0xbd95e5b9	-0.07319207
30	0xbcfda47d	-0.030962223
31	0xbce1c6ff	-0.027560709
32	0xbec9ab10	-0.39388323
33	0x3f76cf7f	0.96410364
34	0x3e31f56f	0.17378782
35	0xbeea9fbc	-0.45824993
36	0x3ef832a8	0.48476148
37	0x3ea4e09f	0.32202622
38	0x3f7b209a	0.9809662
39	0x3f66099b	0.89858407
40	0x3e2eb65a	0.17061749
41	0xbecbb08c	-0.39783132
42	0xbe878a5d	-0.2647275
43	0x3f8a1f5f	1.0790824
44	0xbd0f95b5	-0.03505488
45	0x3f492a14	0.7857983
46	0x3e8bd241	0.27308849
47	0xbdbe13a5	-0.09281091
48	0x3e53ff38	0.20702827
49	0xbe5dfb76	-0.21677956
50	0x3c2015af	0.009770795
51	0xbea1fbff	-0.3163757
52	0xbe0db1c9	-0.13837351
53	0x3ea06a47	0.31331083
54	0xbed54010	-0.41650438
55	0xbefa67d2	-0.48907334
56	0xbd63db75	-0.055629212
57	0x3df15715	0.11784188
58	0xbe08e357	-0.13367973
59	0xbe4f2494	-0.20228797
60	0x3e87d7f8	0.2653196
61	0x3ec4a042	0.38403517
62	0x3ee348d7	0.4439151
63	0x3e5528ff	0.2081642
64	0x3e054758	0.13015497
65	0xbeb40f82	-0.35168082
66	0x3f2c586f	0.6732244
67	0x3e5c2d0d	0.2150156
68	0x3eab1caa	0.33420306
69	0xbe64f495	-0.22358926
70	0xbd750fb0	-0.059829414
71	0x3e35d0e1	0.17755462
72	0xbebc5522	-0.367837
73	0x3df1115b	0.117708884
74	0xbe63c122	-0.22241643
75	0xbe963c4d	-0.2934288
76	0xbe5b7476	-0.21431145
77	0xbf0be00a	-0.5463873
78	0x3ddf261b	0.1089594
79	0x3ecdbe21	0.4018412
80	0x3f0d9a9d	0.55314046
81	0x3e8eafcc	0.27868497
82	0x3eac51ed	0.33656254
83	0xbe9b39c5	-0.30317512
84	0x3ce612ab	0.028085073
85	0xbe9af3d0	-0.3026414
86	0xbe2894ec	-0.16463059
87	0xbf00b381	-0.502739
88	0x3f26ea1b	0.65200967
89	0x3ea203db	0.31643566
90	0xbd47f4aa	-0.048817314
91	0xbf1fba2e	-0.6239346
92	0xbe528dc4	-0.20561892
93	0x3f0247f0	0.5089102
94	0xbf7534ee	-0.9578389
95	0x3f1cf95c	0.6131799
96	0x3ea2fc01	0.3183289
97	0xbe8fd70e	-0.2809376
98	0xbd1df3e6	-0.038562678
99	0xbe14a52a	-0.1451613
100	0xbe83b4c8	-0.25723863
101	0xbf8c1aa2	-1.0945628
102	0x3e9a54e3	0.30142888
103	0x3e5a269c	0.21303791
104	0x3ec80d72	0.39072758
105	0x3e6cc91a	0.23123589
106	0x3e805d14	0.25071013
107	0xbe9d7796	-0.307553
108	0x3ee85a84	0.45381558
109	0x3e1c03eb	0.1523587
110	0xbf00cb93	-0.5031063
111	0x3e744e91	0.23858096
112	0x3e9a8595	0.3018004
113	0xbe7b3860	-0.24533224
114	0xbf1bab12	-0.6080791
115	0x3e6ab19c	0.22919315
116	0xbf319cd4	-0.69379926
117	0xbec297ac	-0.3800634
118	0xbee70d49	-0.45127323
119	0x3e0869f5	0.1332167
120	0x3d0a94a3	0.033833157
121	0xbf13ff1e	-0.5781115
122	0xbf0a3108	-0.53981066
123	0xbe66651f	-0.22499512
124	0xbee9cd19	-0.4566429
125	0x3e7ac269	0.24488224
126	0xbe9cf7ff	-0.30657956
127	0x3e7aa7e4	0.24478108

bias f4 [4]
0	0x3ae75043	0.0017647821
1	0x3e0d2bfd	0.13786311
2	0xbdcb7f7a	-0.099364236
3	0x3e1e7195	0.15473016

weight f4 [128, 24]
0	0x3e9a71b0	0.30164862
1	0x3fa60200	1.296936
2	0xbe1832dd	-0.14863153
3	0xbe2cc32d	-0.16871329
4	0x3e3b03d0	0.18263173
5	0x3da11825	0.07865933
6	0xbdcb2be3	-0.0992048
7	0xbd2ef225	-0.042711396
8	0xbe912bdf	-0.28353783
9	0xbe878ea8	-0.26476026
10	0xbe826bc4	-0.25472844
11	0xbe4c93b7	-0.19978224
12	0xbd1be3e3	-0.038059127
13	0x3b3ea2a4	0.002908864
14	0xbde53193	-0.11191096
15	0xbdb69805	-0.08915714
16	0xbcc032a2	-0.023461644
17	0xbdb4faa4	-0.088368684
18	0x3e7a9899	0.24472274
19	0x3e3b5a36	0.18296131
20	0x3e90218e	0.281506
21	0x3e14dd51	0.1453755
22	0x3d4fea4b	0.05076055
23	0x3db710b6	0.08938734
24	0x3f14b4c4	0.58088326
25	0x3f7875b4	0.970546
26	0xbeb93d81	-0.36179736
27	0xbe2622d0	-0.16224217
28	0x3e86c4da	0.2632206
29	0x3de168e6	0.11006336
30	0x3e5e4a2f	0.21707986
31	0xbe650c6c	-0.2236802
32	0xbe6564c4	-0.2240172
33	0x3dd8456b	0.105601154
34	0xbceba452	-0.028764877
35	0x3c9ba835	0.019001106
36	0x3d25f231	0.040514175
37	0xbec90c7e	-0.39267343
38	0x3ce296d8	0.027659819
39	0x3e5b137d	0.21394153
40	0x3db55b22	0.08855273
41	0x3deb2495	0.11481587
42	0x3e534a5b	0.20633833
43	0x3e7002f4	0.23438627
44	0x3d071075	0.03297468
45	0x3e5eae42	0.21746162
46	0x3d4c3ed3	0.0498646
47	0xbe3a43eb	-0.18189971
48	0xbca7185f	-0.020397363
49	0xbf723e88	-0.94626665
50	0x3f08199c	0.53164077
51	0xbd92c6f3	-0.07166853
52	0x3ea0a7ca	0.31378013
53	0x3e2358aa	0.15951791
54	0xbe17a694	-0.14809638
55	0x3c679b68	0.014136173
56	0x3c61cdc5	0.013781969
57	0xbf0cd7f1	-0.55017
58	0xbd17f13a	-0.037095286
59	0xbed55b12	-0.41671044
60	0x3c602dc9	0.013682791
61	0x3e2e41c8	0.17017281
62	0x3e6c41f4	0.23072034
63	0x3e91efab	0.28503165
64	0x3da03566	0.07822685
65	0xbde26b6a	-0.11055644
66	0xbddfba9f	-0.10924267
67	0x3e9617d3	0.2931505
68	0x3da742c0	0.081670284
69	0xbd602987	-0.054727104
70	0x3e79c9ca	0.24393383
71	0xbda2b344	-0.079443485
72	0x3e486faa	0.19573846
73	0xbf315646	-0.6927227
74	0x3da0c5f8	0.078502595
75	0xbf00a106	-0.502457
76	0x3ea4e5f0	0.32206678
77	0xbe834e5c	-0.2564572
78	0x3e5caad2	0.21549538
79	0xbc95f31a	-0.018304396
80	0x3d6bef21	0.057601098
81	0xbe70a67a	-0.23501006
82	0x3e9e36a8	0.30901074
83	0xbe60fa1d	-0.2197041
84	0x3df3627e	0.1188402
85	0x3dc76fba	0.09738107
86	0xbe691a13	-0.22763853
87	0x3db2f8f8	0.08738893
88	0xbde1b6d1	-0.110211976
89	0xbe57da2e	-0.21079323
90	0x3d386126	0.045014523
91	0x3d906d46	0.07052092
92	0x3d68b88b	0.05681662
93	0xbe69cd43	-0.22832207
94	0x3d1c0dec	0.038099214
95	0x3de46236	0.11151545
96	0xbef533a8	-0.47890973
97	0x3d87b2e6	0.06625919
98	0x3efb20a9	0.49048355
99	0x3e17afe7	0.14813195
100	0xbe27aed2	-0.16375282
101	0x3e1f9eaa	0.1558787
102	0x3ce2431b	0.027619889
103	0x3e07a7b2	0.13247564
104	0x3e1c6d94	0.15276176
105	0x3eab99db	0.3351582
106	0x3cdcb426	0.02694137
107	0xbd845422	-0.064613596
108	0x3bc734ce	0.006079293
109	0xbe3c04e2	-0.18361238
110	0x3e419d4f	0.18907665
111	0xbe0f9904	-0.14023215
112	0x3e11590d	0.14194126
113	0x3e0102b4	0.12598687
114	0x3e31651a	0.17323723
115	0x3dc54ad5	0.09633414
116	0xbdeabfbe	-0.11462353
117	0xbc493ce1	-0.012282581
118	0x3d5483d6	0.05188354
119	0xbb89ce7f	-0.0042055245
120	0x3e61f00b	0.22064225
121	0xbe940f54	-0.28917944
122	0x3ce54b91	0.027990134
123	0xbe468e67	-0.1939026
124	0x3eac1a8d	0.33614007
125	0x3dbb6917	0.09150904
126	0xbd99d2b5	-0.07510892
127	0xbe4bcf9c	-0.19903415
128	0x3e3cebfe	0.18449399
129	0xbd7bb643	-0.061453115
130	0xbefef570	-0.4979663
131	0xbe402934	-0.18765718
132	0x3e55315b	0.20819609
133	0xbe617493	-0.22017126
134	0xbe278d4d	-0.16362496
135	0x3d9cfbfe	0.07665251
136	0xbde62d45	-0.11239103
137	0x3c9abef5	0.018889884
138	0x3e0566c2	0.1302748
139	0xbddd20e1	-0.10797287
140	0x3dbf6851	0.09346069
141	0xbe0469ba	-0.12930956
142	0x3df47ce1	0.11937881
143	0x3d2ca446	0.04214885
144	0x3ded1bf5	0.11577598
145	0x3f290e89	0.66037804
146	0x3d27cad9	0.040964935
147	0xbd66c0af	-0.0563361
148	0xbdf37a85	-0.11888603
149	0x3ee68560	0.45023632
150	0xbe1ff9a8	-0.1562258
151	0x3e96dbd7	0.294646
152	0xbe8434b7	-0.25821468
153	0x3efb7cc2	0.4911862
154	0xbe9c43f8	-0.30520606
155	0x3d927f09	0.07153136
156	0xbdd97896	-0.10618703
157	0x3e3a3184	0.18182951
158	0xbdbf5643	-0.09342625
159	0x3d42926d	0.047502924
160	0x3db0d71d	0.086347796
161	0xbdb47e75	-0.08813182
162	0x3e5ddf42	0.21667197
163	0xbd4f87dc	-0.050666675
164	0x3e373bc7	0.17893897
165	0x3de08fe5	0.10964946
166	0x3d8aab82	0.06770994
167	0x3df0cb2f	0.11757504
168	0x3f33fcdb	0.703077
169	0x3faa8877	1.3322896
170	0xbf0be786	-0.5465015
171	0xbf1e7e8a	-0.61911833
172	0x3ece8e6c	0.40343034
173	0x3d8fe374	0.07025805
174	0x3e6d1e28	0.23156035
175	0xbd0adc12	-0.03390128
176	0x3e60d537	0.21956335
177	0x3eb2fb8d	0.34957543
178	0xbb77f5b3	-0.0037835657
179	0x3d0824fd	0.0332384
180	0x3ca96d26	0.020681929
181	0xbddbb157	-0.10727184
182	0xbc6e7f53	-0.014556724
183	0xbe34fccb	-0.17674558
184	0xbdc9d279	-0.098545976
185	0x3e1768ca	0.14786068
186	0xbdac8cf2	-0.08425321
187	0x3e7146dc	0.23562187
188	0x3e607705	0.21920402
189	0x3d5a893b	0.05335353
190	0xbdacf4c4	-0.08445123
191	0xbd927c72	-0.07152642
192	0xbed7ead6	-0.42171353
193	0xbec44924	-0.38337052
194	0x3d952a3c	0.07283446
195	0xbe948db2	-0.29014355
196	0x3e157c3f	0.14598177
197	0x3c9a76c6	0.018855464
198	0x3dd50711	0.104017384
199	0x3e19edbf	0.15032099
200	0xbe85eacb	-0.26155695
201	0x3db5387d	0.08848665
202	0xbccc6368	-0.024949744
203	0xbf20caec	-0.62809634
204	0xbdefa992	-0.11702265
205	0xbe731d67	-0.23741685
206	0x3e5374f9	0.2065009
207	0x3d010fdb	0.03150926
208	0xbc575352	-0.013142424
209	0x3e121a30	0.14267802
210	0xbe26e91f	-0.16299866
211	0x3dc9d46b	0.09854969
212	0xbdb938a7	-0.09044009
213	0x3e236f07	0.15960322
214	0xbb43ca9d	-0.0029875406
215	0x3ddb47cd	0.10707054
216	0x3e698b45	0.22807033
217	0x3ee2a512	0.44266564
218	0xbeebdd4a	-0.46067268
219	0x3ea5ac7a	0.32358152
220	0xbcdf8bab	-0.027288279
221	0xbbb97d7c	-0.005660711
222	0xbd9cfae9	-0.07665045
223	0x3e364f48	0.17803681
224	0x3ec42e1c	0.3831643
225	0x3ed73752	0.42034394
226	0x3d746b2e	0.059672527
227	0xbdc4937f	-0.09598445
228	0xba4fc2ba	-0.000792544
229	0x3d1896c1	0.037253145
230	0x3c12cb24	0.008959565
231	0xbcb20c01	-0.02173424
232	0x3dbf80f4	0.09350768
233	0x3eb8ea36	0.3611619
234	0x3e00f76a	0.12594381
235	0x3d9e416a	0.077273205
236	0x3e67f3d4	0.22651607
237	0x3e0f5ec5	0.14000995
238	0x3ddb14f6	0.10697357
239	0xbe33f33a	-0.17573252
240	0x3e9c63a4	0.3054477
241	0x3f9889b4	1.1917024
242	0xbe094e5a	-0.13408795
243	0x3dd69231	0.104771025
244	0xbc614683	-0.013749721
245	0x3e74b2b9	0.23896302
246	0xbedd40c9	-0.4321349
247	0xbddf196b	-0.1089352
248	0xbdb7d116	-0.08975427
249	0x3e0b557b	0.13606827
250	0xbb863b08	-0.0040963925
251	0x3c3a3fb5	0.011367728
252	0x3c6cbb4f	0.014448955
253	0xbdac4f42	-0.08413555
254	0x3e9bea08	0.3045199
255	0x3e2ae7a5	0.16689928

bias f4 [128]
0	0x3e1331c4	0.14374453
1	0x3df0990b	0.11747941
2	0x3e1c44ad	0.15260573
3	0x3e09560b	0.13411729
4	0x3b0184c2	0.0019762968
5	0x3d7fdcff	0.062466618
6	0xbdaf6bff	-0.085655205
7	0x3db0d4bb	0.08634325
8	0x3e2c679b	0.16836397
9	0xbe05be31	-0.13060834
10	0x3e0d979f	0.1382737
11	0xbde010f2	-0.10940732
12	0x3dd520e9	0.10406668
13	0x3eae8ff8	0.34094214
14	0xbce27369	-0.027642922
15	0x3e37ff4c	0.17968482
16	0x3e2b0b4b	0.16703527
17	0x3e1ba59c	0.15199894
18	0xbeba2658	-0.3635738
19	0x3e147fed	0.14501925
20	0xb99b6bbc	-0.00029644172
21	0x3dfb4213	0.12268462
22	0xba30c777	-0.000674359
23	0x3dd441af	0.10364091
24	0x3e7b2b50	0.24528241
25	0x3dbc953b	0.09208151
26	0xbd7cdcd7	-0.061734047
27	0xbdf30d98	-0.11867827
28	0x3d0b1038	0.033951014
29	0x3e98b785	0.29827514
30	0x3de34f2b	0.110990845
31	0xbbde2ce4	-0.0067802537
32	0xbd438309	-0.047732387
33	0xbdf26136	-0.11834948
34	0xbcbccb45	-0.023046145
35	0x3cb0a60d	0.021563554
36	0x3e362c27	0.1779028
37	0x3e5aab83	0.21354489
38	0x3d4e521f	0.050371286
39	0x3be69539	0.0070368317
40	0xbe58d5f4	-0.21175367
41	0x3e9a6683	0.30156335
42	0xbe02c2a2	-0.12769559
43	0x3d902614	0.07038513
44	0xbce1dfa1	-0.027572455
45	0x3e4fbb37	0.2028626
46	0x3df9c3ad	0.12195525
47	0x3e0275ac	0.12740201
48	0xbdcc0434	-0.09961739
49	0xbb384d0c	-0.0028122095
50	0x3e386d9e	0.18010566
51	0xbdfb1cd8	-0.12261361
52	0x3e4883f7	0.1958159
53	0x3d3b4864	0.045723334
54	0x3e6a1491	0.22859408
55	0x3c7e1286	0.015507346
56	0x3de0cafc	0.10976216
57	0xbdc5a4e3	-0.0965059
58	0xbd052cb1	-0.032513324
59	0x3db2d3be	0.08731793
60	0x3d2497a2	0.04018367
61	0x3e11e4cf	0.1424744
62	0xbe0371aa	-0.12836328
63	0x3e02f985	0.12790497
64	0x3df90d20	0.121607065
65	0x3e6fc374	0.23414403
66	0x3e46c339	0.19410409
67	0xbe16c39d	-0.14723058
68	0x3e26337c	0.16230577
69	0xbe0835e9	-0.13301815
70	0x3db171da	0.086642936
71	0x3e7583a1	0.23975994
72	0x3d276391	0.04086644
73	0x3e134eed	0.14385577
74	0x3d6dc3a6	0.058047913
75	0x3e17f6f4	0.14840299
76	0x3cd8f5be	0.026484367
77	0xbd3095eb	-0.043111723
78	0x3e19af36	0.15008244
79	0xba132dc5	-0.0005614425
80	0xbe0a1dc7	-0.13487922
81	0x3c5b50be	0.01338595
82	0xbd99e273	-0.07513895
83	0xbe03778c	-0.12838572
84	0xb84affc8	-4.8398768e-05
85	0x3e7729b3	0.24137
86	0x3be5edbb	0.007016865
87	0x3de69b8c	0.11260137
88	0xbddd596b	-0.10808071
89	0xbda9984d	-0.08281002
90	0x3d8327e0	0.0640409
91	0x3e09f7a9	0.13473381
92	0xbd144c71	-0.036205713
93	0x3e412eb5	0.18865474
94	0xbd2c4098	-0.04205379
95	0x3e644c60	0.2229476
96	0xbe81e778	-0.2537191
97	0x3da6b881	0.0814066
98	0xbd9205bf	-0.07130002
99	0xbd225c80	-0.039638996
100	0x3d761f10	0.060088217
101	0x3e425dd1	0.189811
102	0x3ba7b8ce	0.005118466
103	0xbd73b3c9	-0.05949763
104	0xbda53de3	-0.080684446
105	0xbdd5b6c4	-0.104352504
106	0xbd7f7229	-0.06236473
107	0x3e2e4dcd	0.17021866
108	0xbd22f820	-0.03978741
109	0xbe494437	-0.19654928
110	0xbe69df01	-0.22838975
111	0xbe366279	-0.17811002
112	0x3e1b155a	0.15144864
113	0x3e6c05bb	0.23049061
114	0x3e9448e7	0.2896187
115	0xbe1fa1b1	-0.15589024
116	0xbe2642b1	-0.16236378
117	0xbdff7e39	-0.12475247
118	0x3e572737	0.21011053
119	0x3dafbb06	0.08580594
120	0x3d8b26e3	0.067945264
121	0x3e3bc01d	0.18335004
122	0x3e0ec018	0.13940465
123	0x3ddf397f	0.108996384
124	0x3e835eba	0.25658208
125	0x3dfff9ce	0.12498818
126	0x3cc76c6e	0.024343695
127	0xbde10113	-0.10986533

weight f4 [64, 128]
0	0xbd35d109	-0.044388805
1	0x3e010088	0.12597859
2	0xbe2c9e57	-0.16857277
3	0xbda94537	-0.08265155
4	0xbd39f22e	-0.045396976
5	0x3e44aa8d	0.19205685
6	0x3ea14952	0.3150125
7	0x3e2eb266	0.17060241
8	0x3c2aaa7a	0.010416621
9	0x3e17e612	0.14833859
10	0x3d050a7b	0.032480698
11	0xbe37f5fe	-0.17964932
12	0xbcb49ee9	-0.02204843
13	0xbdd04169	-0.10168726
14	0xbd8fc7cd	-0.07020531
15	0xbe503c8f	-0.20335601
16	0x3d667be4	0.056270495
17	0xbe4d4f06	-0.20049676
18	0x3cf629a3	0.03004915
19	0x3e58afb9	0.21160783
20	0xbe5e5f91	-0.21716143
21	0x3e1fe724	0.15615517
22	0xbd83e858	-0.064408004
23	0x3d49df73	0.049285363
24	0x3e6615b8	0.22469223
25	0xbe9e4c05	-0.30917373
26	0x3c58e243	0.013237539
27	0x3e0721be	0.13196465
28	0x3e15c422	0.146256
29	0x3e1760a6	0.14782962
30	0xbdca0b7c	-0.09865472
31	0x3c4d85f7	0.012544147
32	0x3d02e9da	0.0319613
33	0xbaaebd85	-0.0013331628
34	0x3d6739dc	0.056451663
35	0xbe295ba9	-0.16538872
36	0x3d19e4de	0.03757178
37	0xbe04f4fd	-0.1298408
38	0xbe149084	-0.14508253
39	0x3e11ff55	0.14257558
40	0xbe0472c1	-0.129344
41	0xbd495f2d	-0.049163032
42	0x3e66ee91	0.22551943
43	0xbe721295	-0.23639901
44	0x3c8729b4	0.016499378
45	0xbdbb116a	-0.09134181
46	0x3d673688	0.05644849
47	0x3dcd36fa	0.100202516
48	0xbe29bdc3	-0.16576295
49	0x3e76c200	0.24097443
50	0xbdcce495	-0.10004536
51	0x3e5e104f	0.21685909
52	0x3eb7422d	0.35792676
53	0xbe016421	-0.12635852
54	0xbe4a3678	-0.1974734
55	0x3da98ed7	0.08279198
56	0xbd2f4e63	-0.042799365
57	0x3ddc7876	0.107651636
58	0x3eabf564	0.33585656
59	0x3bb37d3c	0.0054775756
60	0x3c0155c7	0.007893986
61	0xbe81e9a7	-0.25373575
62	0x3d46aa26	0.04850211
63	0xbb897871	-0.004195266
64	0xbdb50580	-0.0883894
65	0xbb44ea03	-0.0030046708
66	0xbbcffcdc	-0.006347282
67	0xbaceae19	-0.0015768438
68	0xbd86d5f1	-0.06583775
69	0x3d8bbade	0.068227515
70	0x3e4105d5	0.18849881
71	0x3e076cb3	0.13225059
72	0xbeb98e9b	-0.36241612
73	0x3dd797d8	0.10527009
74	0xbe8ba908	-0.27277398
75	0x3dad95eb	0.0847586
76	0xbe29efe2	-0.16595414
77	0xbdc64961	-0.09681965
78	0xbea5b405	-0.32363907
79	0xbecb709e	-0.39734358
80	0x398cd30c	0.00026860123
81	0x3e3a9774	0.18221837
82	0x3e3d92e0	0.1851306
83	0xbe3c71a6	-0.18402728
84	0x3df75815	0.12077347
85	0x3dde3bae	0.10851227
86	0x3e57d617	0.21077763
87	0x3d3d5dc0	0.046231985
88	0xbd800ffd	-0.062530495
89	0x3e60ccb8	0.21953094
90	0x3e6da28b	0.23206536
91	0x3d62d53b	0.055379134
92	0x3e0354c2	0.12825301
93	0xbec2752c	-0.3798002
94	0xbcf5093b	-0.029911628
95	0x3ec1f748	0.37883973
96	0x3dd7d418	0.105385005
97	0xbe265ab4	-0.16245538
98	0x3e56651e	0.2093701
99	0x3dfa5bce	0.122245416
100	0x3e803389	0.25039318
101	0xbefa9473	-0.48941383
102	0x3e00542c	0.12532109
103	0xbd0d1686	-0.03444531
104	0xbe8aa801	-0.27081302
105	0x3e2c0aea	0.16801038
106	0x3e0eb22a	0.13935152
107	0xbe5b9101	-0.21442033
108	0x3e8265e6	0.25468367
109	0xbdca558e	-0.098795995
110	0x3d265ff0	0.040618837
111	0x3e376164	0.17908245
112	0x3e6f6d69	0.2338158
113	0x3df0e30f	0.11762058
114	0xbe9de726	-0.30840415
115	0x3d895ac0	0.06706762
116	0x3de128c6	0.10994105
117	0x3c8a198f	0.01685789
118	0xbd0f9852	-0.035057373
119	0xbd21f71f	-0.039542314
120	0x3e21e7d9	0.15811099
121	0x3e3fc75a	0.1872839
122	0xbc206f44	-0.009792153
123	0xbd74b624	-0.059744015
124	0x3ddecbb5	0.10878698
125	0xbde2ae59	-0.110684104
126	0x3dd43aa7	0.103627495
127	0x3e803f97	0.25048515
128	0xbe004732	-0.12527159
129	0x3dbf3337	0.0933594
130	0x3d79aef3	0.06095786
131	0x3e5caf43	0.21551232
132	0xbc05ac43	-0.008158746
133	0x3d3f6e8c	0.046736285
134	0x3e4bd358	0.1990484
135	0xbdcca6a2	-0.0999272
136	0x3d11c440	0.03558755
137	0x3e55767a	0.20845976
138	0x3e177335	0.14790042
139	0x3e0698ec	0.13144273
140	0x3e290ce2	0.1650882
141	0xbcb4e537	-0.022081954
142	0x3cad793f	0.021175979
143	0x3b95655f	0.0045592035
144	0x3e42225b	0.18958418
145	0xbec63044	-0.387087
146	0xbdbef97f	-0.09324931
147	0x3e2df335	0.16987307
148	0xbd6bf116	-0.057602964
149	0x3e704662	0.23464349
150	0x3da3e54f	0.080027215
151	0x3d773ac0	0.060358763
152	0x3b839621	0.0040156995
153	0x3db2b987	0.08726793
154	0xbee749b3	-0.45173416
155	0x3d23fa74	0.040033773
156	0x3e4966f4	0.1966818
157	0x3ea909d8	0.33015323
158	0xbcaf571a	-0.021403838
159	0xbeaaf361	-0.33388808
160	0x3e82edfc	0.25572193
161	0x3eacd343	0.3375493
162	0x3b60f680	0.0034326613
163	0x3db38878	0.08766264
164	0x3d399d0a	0.04531578
165	0x3daaeac2	0.08345558
166	0xbb298f18	-0.0025872644
167	0x3dfcf373	0.12351122
168	0xbe69cbc0	-0.2283163
169	0xbce01ac3	-0.027356511
170	0x3e5cc97c	0.21561235
171	0x3db9d492	0.09073748
172	0xbc1dfda0	-0.009642988
173	0x3d224da0	0.03962481
174	0x3e8f632e	0.28005356
175	0x3dff873f	0.12476968
176	0xba1c9ebc	-0.0005974581
177	0x3e2f9be0	0.17149305
178	0xbd868b38	-0.065695226
179	0x3dafb9be	0.085803494
180	0xbdae48b3	-0.0850996
181	0xbe24d5ad	-0.16097136
182	0x3e0dcd57	0.13847862
183	0xbc149bd8	-0.009070359
184	0xbdc08bca	-0.09401663
185	0x3d76da7f	0.060266968
186	0x3d9d3514	0.076761395
187	0xbcbd9084	-0.0231402
188	0x3d4a930d	0.049456645
189	0x3e2bf9d5	0.16794522
190	0x3c71cac2	0.014757814
191	0xbdeb9de1	-0.115047224
192	0xbdf9138a	-0.1216193
193	0x3b02d6d5	0.0019964476
194	0x3e0f65aa	0.14003626
195	0x3cdb66e8	0.026782468
196	0x3da0aa41	0.07844973
197	0x3e149544	0.14510065
198	0x3ebdaabb	0.3704432
199	0x3eb3a780	0.3508873
200	0x3e200c5f	0.15629719
201	0x3ae9df1f	0.0017842985
202	0x3c4572ab	0.012051265
203	0x3d05cfa3	0.03266872
204	0xbe0158a8	-0.12631476
205	0x3ded0f00	0.11575127
206	0x3da2b706	0.07945065
207	0x3d88505e	0.06655954
208	0x3cd07cfc	0.025450222
209	0x3dcfc442	0.10144855
210	0x3d635ed2	0.05551035
211	0x3e12494d	0.14285775
212	0x3dc2e1c2	0.09515716
213	0x3dd15b40	0.10222483
214	0x3de06f2e	0.10958706
215	0xbe25b767	-0.16183244
216	0x3dd3544b	0.10318812
217	0xbbefc940	-0.007317692
218	0x3d5dacde	0.054119937
219	0x3ea76cad	0.327001
220	0x3e0af717	0.1357082
221	0x3ceab2ba	0.028649677
222	0xbc99b3ea	-0.018762548
223	0x3d8c872f	0.06861722
224	0x3d1bd044	0.038040414
225	0x3e0763d7	0.1322168
226	0x3e9136f6	0.28362244
227	0xbe66c59c	-0.2253632
228	0xbe13d9fb	-0.14438622
229	0x3e1d7e8f	0.1538031
230	0xb9964ab9	-0.00028665902
231	0x3ed2a9fc	0.41145313
232	0x3dda313a	0.106539205
233	0x3e8e8190	0.27833223
234	0x3dc92b99	0.09822769
235	0xbe4a5ed6	-0.1976274
236	0xbd2538e6	-0.040337466
237	0x3d81ec03	0.06343844
238	0x3d71b2b7	0.059008326
239	0x3dc7b6b9	0.097516485
240	0xbcfabfd3	-0.030609047
241	0x3e1b5c4e	0.1517193
242	0xbd231134	-0.039811328
243	0xbc7dfac8	-0.015501685
244	0x3d240412	0.040042944
245	0x3daffdcc	0.0859333
246	0xbd01967f	-0.031637665
247	0xbdd36c13	-0.10323348
248	0x3d325b62	0.04354418
249	0x3e654b3d	0.22391982
250	0xbdd63e18	-0.10461062
251	0xbe831c31	-0.25607446
252	0x3e6ff86c	0.23434609
253	0x3dfe48ee	0.12416254
254	0xbec7cf7c	-0.39025486
255	0x3e77adea	0.24187437

bias f4 [64]
0	0x3e1358b4	0.14389306
1	0x3dce6027	0.10076933
2	0xbd5f6fa5	-0.054549832
3	0xbd2c7038	-0.042099208
4	0x3e13d4eb	0.1443669
5	0x3d26a812	0.040687628
6	0x3cba6cec	0.022757016
7	0xbd1e6c56	-0.038677536
8	0x3dfece1b	0.12441655
9	0x3c43b581	0.011945129
10	0xbd0a0d63	-0.033704173
11	0x3d1926fe	0.0373907
12	0xbced524a	-0.028969903
13	0xbd93ac55	-0.07210604
14	0x3e04f8b0	0.12985492
15	0x3ca1ca61	0.019749822
16	0xbe13220e	-0.1436846
17	0xbb998f73	-0.00468629
18	0x3df17cc6	0.11791377
19	0x3cbcaf9a	0.023032952
20	0x3de38362	0.11109044
21	0x3d9ea2c0	0.07745886
22	0x3e14e0ec	0.14538926
23	0xbd531e8a	-0.051542796
24	0xbd628942	-0.05530668
25	0x3bf45de3	0.007457481
26	0x3d2b86b3	0.041876506
27	0x3d61ed64	0.055158034
28	0x3da42275	0.08014385
29	0xbd0fd0b6	-0.03511115
30	0x3affcf8b	0.0019516809
31	0x3e070941	0.13187124
32	0x3d5a0dfa	0.053235985
33	0x3dbbe759	0.091749854
34	0x3d3b2ea2	0.04569877
35	0xbb0450e6	-0.002018982
36	0x3c452ae2	0.01203415
37	0x3d38b70a	0.045096435
38	0x3d1b31a4	0.037889138
39	0x3d1ebc30	0.03875369
40	0x3dfbe0fb	0.12298771
41	0x3dccd88f	0.10002243
42	0x3d1be7ef	0.038062986
43	0x3cc2e35d	0.023790056
44	0x3e2fe76a	0.17178121
45	0x3de1ab20	0.11018968
46	0x3d6d101c	0.05787669
47	0x3dab7bb7	0.08373206
48	0x3dbb57bb	0.09147593
49	0x3d7d8eda	0.061903812
50	0x3c945677	0.018107636
51	0x3d0a4747	0.03375938
52	0x3da8898c	0.0822936
53	0x3e4dfc1a	0.201157
54	0xbd7c3083	-0.061569702
55	0xbbc83516	-0.006109844
56	0x3cb521bb	0.02211081
57	0x3d2ce427	0.04220977
58	0x3d9824cb	0.07428893
59	0xbc0052a6	-0.007832205
60	0x3dda344b	0.10654505
61	0xbe074b2c	-0.1321227
62	0x3d91d491	0.07120622
63	0x3de0d165	0.10977439
